checkpoints/headnumber_2/checkpoints/last.ckpt (torch, 57437 bytes, 87 tensors)

model.revin.gamma f4 [1, 1, 6]
000000 02 03 36 3e f2 18 6c 3f 0e 11 a7 3f 5a 02 10 3f
       0.17774585 0.92225564 1.305208 0.5625359
000010 8c f7 68 3f db 69 cd 3f
       0.91002727 1.604793

model.revin.beta f4 [1, 1, 6]
000000 17 b8 d0 be 8b fa 8a 3f f4 47 1e bf 55 2e 81 be
       -0.4076545 1.085771 -0.6182854 -0.2523066
000010 e3 a7 d5 3f 98 11 b0 be
       1.669186 -0.34388423

model.attention.temporal_attention.q_proj.weight f4 [6, 6]
000000 6d 80 3e 3e 7d a4 56 3e de 5b e1 bd 30 f0 20 bd
       0.18603678 0.20961185 -0.110038504 -0.03929156
000010 56 14 ee 3d db 73 d4 be ab 8f 71 bd da c9 85 be
       0.116249725 -0.4149464 -0.058974903 -0.26130563
000020 ae b6 ac 3d fd a7 72 3c bf c3 fb bd 4f 28 0f bd
       0.08433281 0.014810559 -0.12293195 -0.03495055
000030 b1 17 90 bc c4 0b 88 3e 5e 12 e7 bd 3a 13 7f 3e
       -0.017589422 0.26571476 -0.112828 0.24909678
000040 ee f8 2c 3e ba 2c 60 bd 5c 2a e0 3e 5f 44 c8 be
       0.16891834 -0.054730155 0.43782318 -0.39114663
000050 b7 44 0c be 1f a1 3d be c4 1d 3e bf 04 d6 8f 3d
       -0.13698088 -0.18518494 -0.7426417 0.07023242
000060 ae 48 09 3e 8a 73 f3 be 34 bd bd 3e fa 7b a2 bd
       0.13406631 -0.47549087 0.37058413 -0.07933803
000070 b1 48 b8 be 22 7d 16 be 8a 85 2f 3e 37 68 ab 3e
       -0.3599296 -0.14696172 0.17140785 0.33477947
000080 81 e1 15 bf 07 6a c1 3e 4f b4 c8 3e bf d8 86 3e
       -0.58547217 0.37776205 0.39200065 0.2633724

model.attention.temporal_attention.q_proj.bias f4 [6]
000000 29 03 c8 be 9f 29 03 bf cc d7 4f 3f 70 a6 32 bf
       -0.3906491 -0.51235384 0.81188655 -0.69785213
000010 5f 6b 04 bf a6 6d 19 3f
       -0.51726335 0.59932935

model.attention.temporal_attention.k_proj.weight f4 [6, 6]
000000 35 49 16 3f ce a4 1c 3e f9 d2 f1 bd a8 df 05 3f
       0.58705455 0.15297243 -0.11807818 0.522944
000010 53 b8 54 be d0 53 ec be 1b 9b 0d 3f b2 29 a3 3d
       -0.20773439 -0.46157694 0.553148 0.07966937
000020 c3 b9 8b be d7 49 6d 3f f6 a3 20 be 6c 9f ce be
       -0.27290162 0.92690796 -0.15687546 -0.40356004
000030 d6 0d 43 3f f3 0d fb 3d 2e 76 13 be e0 56 46 3f
       0.76192987 0.1225852 -0.1440055 0.7747631
000040 a8 11 6b bd 7d d7 45 bf 35 ad ff bd 22 6e 39 3e
       -0.057389885 -0.77281934 -0.124842085 0.18108419
000050 6d 40 07 3f 66 75 80 3f e1 f9 c3 3c 5c b2 27 be
       0.5283268 1.0035827 0.023922862 -0.16376632
000060 e5 82 a9 be 6d bc 65 3d 21 77 03 3f 76 2c 44 3f
       -0.33107677 0.0560879 0.5135365 0.7663034
000070 c9 f7 12 be 9b 24 47 bf 3d f2 4b 3e 85 fe ab 3e
       -0.14352335 -0.7779023 0.19916625 0.3359262
000080 c4 34 2b 3f 78 0f 4d 3f db a5 a2 bd f2 d9 8a be
       0.6687739 0.8010173 -0.07941791 -0.27119404

model.attention.temporal_attention.k_proj.bias f4 [6]
000000 88 20 4e bf 17 cc 84 bf 8a ff 49 bf c3 2a 53 bf
       -0.8051839 -1.0374783 -0.78905547 -0.82487124
000010 4d b7 4c bf 9c 35 64 bf
       -0.79967195 -0.891443

model.attention.temporal_attention.v_proj.weight f4 [6, 6]
000000 6c 39 af be da 42 71 bf 22 07 47 3f d5 55 c5 bf
       -0.34223497 -0.9424263 0.7774526 -1.5416819
000010 87 e3 7b bf 19 f8 a3 3f 98 28 00 bf 17 cf 8a bf
       -0.98394054 1.2810088 -0.5006194 -1.0844449
000020 e4 b6 5a 3f 65 31 d6 bf 32 b0 78 bf 3c 73 ab 3f
       0.8543532 -1.6733824 -0.9714385 1.3394542
000030 92 d9 06 3f ac a4 85 3f 01 54 5a bf 5b 9b d7 3f
       0.52675736 1.0440879 -0.8528443 1.6844286
000040 1e e4 79 3f 86 4e ad bf a9 49 7b 3f 89 34 8b bf
       0.97613704 -1.3539588 0.9815927 -1.0875407
000050 c5 45 99 be f8 7c 90 bf 22 13 81 bf 3e aa 80 3f
       -0.29936042 -1.1288137 -1.0083964 1.0051954
000060 50 53 80 bf a3 13 87 3f 7d 40 be 3e 30 48 90 3f
       -1.0025425 1.0552868 0.37158576 1.127203
000070 99 59 86 3f b9 5c 81 bf 41 bf 81 3f 17 1d 8b bf
       1.0496093 -1.0106422 1.0136491 -1.0868253
000080 06 d1 b8 be 3b a9 8d bf f1 43 82 bf 24 c0 89 3f
       -0.36096972 -1.106727 -1.0176984 1.0761762

model.attention.temporal_attention.v_proj.bias f4 [6]
000000 84 05 66 bf b8 80 80 bf d7 32 7e 3f 73 46 66 bf
       -0.89852166 -1.0039282 0.99296325 -0.89951247
000010 a4 46 6c 3f 09 e7 66 bf
       0.9229529 -0.9019628

model.attention.temporal_attention.out_proj.weight f4 [6, 6]
000000 de 85 9b 3f 33 27 98 3f ff be 96 bf de 5b 86 3f
       1.2150228 1.1886963 -1.1777037 1.0496786
000010 ab 0f 86 bf 8e 7d 83 3f 84 51 35 be 01 0a 81 be
       -1.0473531 1.0272691 -0.17706877 -0.25202945
000020 a3 79 42 3e 49 a1 7e be 83 c8 88 3e ba e1 87 be
       0.18991713 -0.24866213 0.26715478 -0.26539403
000030 11 be 8b be 99 ad af be a0 ca 85 3e 0b 74 88 be
       -0.27293447 -0.34312132 0.26131153 -0.26651034
000040 15 d8 9b 3e af 60 af be 0f fc f6 bd a3 0e 47 be
       0.30438295 -0.3425345 -0.12059795 -0.19439177
000050 65 3d 79 3e 12 f6 eb be aa e7 f7 3e ce 6a f3 be
       0.24339826 -0.46086174 0.48418933 -0.47542423
000060 d1 01 0f be ed a0 8e be e0 6a 93 3e 2e 08 b6 be
       -0.13965537 -0.27857152 0.28792477 -0.35553116
000070 7f 11 cf 3e 4b 5b cf be 8d b7 cc be d1 da 31 bf
       0.40443036 -0.40499339 -0.39983788 -0.6947451
000080 1a cb 30 3f ce 2b b6 be be c5 d4 3e ca b2 e7 be
       0.6905991 -0.35580295 0.41557115 -0.45253593

model.attention.temporal_attention.out_proj.bias f4 [6]
000000 0c 35 02 bf e5 28 12 3e 6a 8f 50 3e b0 0e 36 3e
       -0.50862193 0.14273413 0.20367208 0.1777904
000010 20 c8 39 3e 7d f2 4a bb
       0.18142748 -0.0030967288

model.attention.feature_attention.q_proj.weight f4 [14, 14]
000000 b2 fc 0f 3e 1a 53 95 bc be 0f cc 3d 9d 3f 6e be
       0.1406124 -0.018228102 0.0996394 -0.23266454
000010 80 a6 2b bc 7e 3a bd bd 97 f8 8e be 9f ec 84 be
       -0.010476708 -0.09239672 -0.27924034 -0.25961778
000020 cd fb 03 3b 62 77 bd 3d dc bc 56 be 1d e1 9e be
       0.0020139099 0.09251286 -0.20970482 -0.31031123
000030 5c eb 87 3d 07 73 5c 3f 38 6a 54 be 4e 04 c2 3d
       0.06636688 0.8611302 -0.20743644 0.09473477
000040 c9 f6 0b be 88 43 c2 bd c9 57 33 be 7f 76 a9 3e
       -0.1366836 -0.09485537 -0.17513956 0.33098218
000050 b1 94 46 3f 60 e4 cc 3d 17 1c f4 3c de 2a c8 bd
       0.77570635 0.100044966 0.02979855 -0.09773801
000060 65 56 0f be 81 af bd 3d 83 f9 47 be ea b3 5f bf
       -0.139978 0.0926199 -0.19528775 -0.873839
000070 65 5e e5 3e 14 78 b7 3e 5a 67 2a 3e 12 6e 2d 3e
       0.4479858 0.358338 0.16640988 0.1693652
000080 61 ca 40 3e 2d fe 83 3e 1f c5 1b be 86 fb a9 be
       0.18827201 0.25779858 -0.15211914 -0.3319971
000090 26 ca 47 3e 3d d9 ed be ec e2 2b bf fe 17 2b be
       0.19510707 -0.46454802 -0.6714313 -0.16708371
0000a0 ac 0c 20 bf 5e 7e f5 bd 46 c7 db ba b7 bb 44 3e
       -0.62519336 -0.11986993 -0.0016767762 0.19212233
0000b0 9d 62 2d bd 30 40 c1 3e 70 5e 94 3d 4d 33 72 be
       -0.042330373 0.37744284 0.07244575 -0.23652382
0000c0 2e 43 da 3e eb 9b 1a be 96 2a dc bd 62 15 cf be
       0.4262938 -0.1509854 -0.1075031 -0.40446
0000d0 42 b1 9f bd c1 bc 2f 3e b3 10 19 bf 19 55 e6 be
       -0.07797481 0.17161848 -0.59791106 -0.449868
0000e0 dd 24 96 bc d8 61 96 3e 14 15 a0 3e 52 10 87 bc
       -0.018328125 0.29371524 0.3126608 -0.016487274
0000f0 bd 18 c0 3e d4 6a b9 3c d5 e4 f8 3e aa 4d 33 be
       0.37518874 0.022633947 0.48612085 -0.17510095
000100 0e 0a f8 bb cf ab bf bd bc c6 e7 be 9c e5 c1 bd
       -0.007569558 -0.09358942 -0.4526881 -0.09467623
000110 d0 0f d3 be 89 2e 06 bf dd 5d b4 3e 13 16 b9 bd
       -0.41223 -0.52414757 0.35227862 -0.090374134
000120 12 37 3f 3e 82 3f be 3e 67 a1 da 3d 98 2a c1 3d
       0.18673351 0.37157828 0.10675316 0.09431952
000130 a0 a7 d2 3e 2b b5 69 3c 3e 0b ea bd 4f 91 22 3e
       0.41143513 0.014264385 -0.114279255 0.15875743
000140 0f c0 bb be 85 fd 67 bc 67 63 d7 3c 6d 56 59 bf
       -0.36669967 -0.014159565 0.026292516 -0.848975
000150 af bb 5e be 16 8a 4b 3f 89 f8 3e 3e 38 dd 08 3f
       -0.21751283 0.7950758 0.18649496 0.53462553
000160 bd 9c ed 3e d0 fb e5 3e 07 55 bf bc 73 92 1a bf
       0.46408644 0.4491868 -0.023355974 -0.60379714
000170 05 c7 05 be 27 48 0c bf 66 76 82 be 2d 06 92 be
       -0.13064201 -0.54797596 -0.25480956 -0.28520337
000180 e8 ca a8 bb 23 05 cf bd 46 32 50 3f 6a d4 8f 3e
       -0.0051511414 -0.101084016 0.8132671 0.28091747
000190 9d 79 18 3e b0 e7 02 3e c6 53 14 bf 1a 45 a1 be
       0.14890142 0.12783694 -0.5794033 -0.31498033
0001a0 6e a5 22 3f f1 91 05 bf 35 07 d5 3e 04 ef 26 3e
       0.63533676 -0.52175814 0.4160706 0.16302115
0001b0 83 e9 16 bf c2 de 40 bf 9a 93 fa 3d 8d aa 7f bf
       -0.5895006 -0.753399 0.12235184 -0.99869615
0001c0 e8 96 68 3e fe 59 99 3e a4 c8 51 3d e4 34 ad bd
       0.22713816 0.2995147 0.051216736 -0.08457354
0001d0 1a 4f 8d be ec 32 76 bf a7 d6 11 3e 63 f7 f2 bd
       -0.27599412 -0.9617145 0.1424204 -0.118635915
0001e0 96 e7 81 3e 64 17 a5 bd f5 aa d9 bc 9a 57 9a be
       0.25372 -0.08061102 -0.026570776 -0.3014496
0001f0 07 7f 83 be 9a dd 10 bf 98 ef d1 bd 00 0b 72 3c
       -0.25682852 -0.5658814 -0.10250777 0.01477313
000200 4c 34 f5 bb d4 e8 9c 3d 00 c2 db 3d 4e a3 36 3e
       -0.007483041 0.07661596 0.10730362 0.17835733
000210 e7 80 d8 3e aa a9 f2 be 55 d1 d9 3d 62 fe 68 3d
       0.42285845 -0.47395068 0.1063563 0.056883223
000220 5f 2c 42 3d 80 64 2b 39 9d e6 ad 3d ff 5a c8 bd
       0.047405597 0.0001634527 0.084912516 -0.09782981
000230 01 2a 41 be 18 45 19 be a3 d1 b7 bd 54 6c 2f bd
       -0.1886368 -0.14967763 -0.08975532 -0.04282792
000240 49 eb 7d 3c 33 47 36 3e 22 a0 e0 be df 22 a5 3d
       0.015497991 0.17800598 -0.43872172 0.08063292
000250 a0 8c ef bd d8 0c 3b be e3 e3 ad 3c 74 9f c9 3e
       -0.11696744 -0.18266618 0.021226829 0.39379466
000260 b1 8e f6 3e 21 4c 51 3f 30 76 93 3d 1d 5d d9 3d
       0.4815574 0.8175679 0.07200277 0.10613463
000270 9c c1 87 bd 4a 18 23 3e e4 55 18 3f ac 27 65 3d
       -0.06628725 0.15927234 0.5950606 0.055946037
000280 01 47 7b be b8 92 4b bd 84 a8 71 be cf 6a da bd
       -0.24538805 -0.04970047 -0.2359944 -0.10664903
000290 95 7b 7a be 05 f6 18 bd dd 6f 3f 3e e2 1f 04 3f
       -0.24461205 -0.037343998 0.18695016 0.5161115
0002a0 f7 b4 c8 be 2d 76 29 be db 1d ce bd d9 c3 9f be
       -0.39200565 -0.16548987 -0.10064288 -0.31204107
0002b0 97 8d 2c 3d d3 7f 49 3f a9 9e 29 3f 31 5f 39 3e
       0.042127218 0.7871067 0.6625772 0.18102719
0002c0 9e cd 80 3e 50 60 96 bd ea 46 a1 bd 15 53 99 be
       0.25156873 -0.07342589 -0.07874854 -0.299462
0002d0 fa 0e 98 be 54 d9 16 bf 28 8b 41 be 12 42 af 3e
       -0.29698926 -0.58925366 -0.1890074 0.34230095
0002e0 48 3b 8a be b1 71 d4 3e 23 df 25 3f b5 b7 84 3e
       -0.26998353 0.4149299 0.64793605 0.25921407
0002f0 28 6b 04 3f 2c 68 b5 bd fb 71 d6 bd f1 20 e4 be
       0.5172601 -0.0885776 -0.10470959 -0.44556382
000300 e8 9c 4f bd a9 54 a8 be 0d c6 2a bf c8 64 80 3b
       -0.050686747 -0.3287709 -0.6670845 0.003918264

model.attention.feature_attention.q_proj.bias f4 [14]
000000 e2 d8 51 ba 0f 1b 4d be c9 4d de 3c 76 ad 8f be
       -0.00080050353 -0.20029853 0.0271367 -0.28062028
000010 d7 79 b9 be 08 16 78 be 91 fa 9e be 86 0f 15 bf
       -0.3622577 -0.24227154 -0.31050542 -0.5822681
000020 e1 ce ca bd 15 aa 05 bf 4a 09 bf 3e 5c 4f 07 3e
       -0.0990274 -0.5221265 0.37311774 0.13213867
000030 b1 7c 05 be 7a 70 a5 be
       -0.13035847 -0.32312375

model.attention.feature_attention.k_proj.weight f4 [14, 14]
000000 38 b8 b6 be c3 26 6b be 92 d7 3b be bf 4f 90 be
       -0.35687423 -0.22964005 -0.18343952 -0.2818584
000010 70 3a be be 4c 30 e8 be 0a 65 b3 3f 23 9c 05 c0
       -0.3715396 -0.45349348 1.401521 -2.0876548
000020 84 f1 a6 3e 3e d7 56 3e 9e 66 cb 3e 76 a7 05 3f
       0.32606137 0.20980546 0.39726728 0.5220865
000030 36 ca 0a 3f a4 b9 f1 3e 88 75 aa be 8e ef 6b be
       0.542148 0.47211945 -0.33292794 -0.23040602
000040 74 2c 6d be 22 ae 0f be 82 8c cc 3c 03 c5 40 3e
       -0.23161489 -0.1403127 0.024969343 0.18825154
000050 64 5d 5d 3f 02 ee 44 be e9 8e 1c 3f 00 e8 d3 3d
       0.8647063 -0.19231418 0.61155564 0.10346985
000060 e1 9b 09 3e 19 2e 16 be f5 2b d2 bd be 63 57 be
       0.1343837 -0.14666022 -0.102622904 -0.21034142
000070 a1 36 bf be 7a f3 45 be 62 b6 e5 be e6 61 22 bf
       -0.37346366 -0.1933116 -0.4486571 -0.6343063
000080 c8 67 a4 bd 9f a2 b4 3e 22 fd b5 3e 5b 4f 23 3d
       -0.08027607 0.3528032 0.35544688 0.0398706
000090 38 80 13 3e 57 8a 43 be 62 16 05 be 76 2a f4 3e
       0.1440438 -0.19095741 -0.1299682 0.47688645
0000a0 89 36 fa 3c dc 27 0a 3f 66 a0 a6 be f9 74 63 be
       0.030543583 0.5396707 -0.3254425 -0.2221259
0000b0 a7 56 3c be eb 72 40 3e 68 3b 93 3d d5 ff 03 3f
       -0.1839243 0.18793838 0.07189065 0.51562244
0000c0 09 b0 d3 3e 22 55 95 bd 52 60 3c 3e 79 98 91 bd
       0.41345242 -0.072916284 0.18396118 -0.0710916
0000d0 46 70 5e be 69 65 c9 3d 07 54 68 be 8d 05 05 be
       -0.21722516 0.098337956 -0.22688304 -0.12990399
0000e0 f9 82 c4 bd c6 a8 8f 3d b3 3d df bb 9f 57 1d 3e
       -0.095952936 0.07014613 -0.006812775 0.15365456
0000f0 a7 c1 0b be 55 df 6a 3e 61 6f b8 3e df 84 01 3d
       -0.13648091 0.22936757 0.36022475 0.031620856
000100 a4 8a 77 3e ef ce 96 3d 04 1b 6a be a6 46 a8 bd
       0.24173981 0.07363688 -0.22861868 -0.082166
000110 93 38 72 be 7e da d4 bd 12 73 2e be 23 74 98 3e
       -0.23654394 -0.103932366 -0.17036083 0.29776105
000120 4f 3d 82 be f7 9d 08 3e f4 8b df bc cb 95 6f 3e
       -0.254374 0.13341509 -0.027288415 0.23396985
000130 66 40 e7 3e ec a2 48 bd b1 26 ca bd 1a 9f 33 3e
       0.4516632 -0.0489835 -0.09870661 0.17541161
000140 41 d7 b1 bd 7a 60 51 bd 55 57 f1 bc b6 90 73 be
       -0.086836345 -0.051117398 -0.029460588 -0.23785672
000150 a9 28 9e be ab 9a 32 be 5c 94 a8 be ca b6 91 be
       -0.30890396 -0.17441814 -0.3292569 -0.2845977
000160 78 ee fd 3d 36 a4 38 be 0b 39 2f 3e 32 1b 8e 3d
       0.12399 -0.18031392 0.17111604 0.06938781
000170 b6 52 4f 3f 92 cb 21 3e 87 70 d9 bb 6a 0d c7 3e
       0.8098558 0.15800312 -0.0066357288 0.38877422
000180 27 60 20 bd f8 ff a6 3e 62 51 00 be 85 ab 13 3f
       -0.039154198 0.32617164 -0.12531045 0.57683593
000190 04 32 97 be f5 39 7b be f9 90 b1 be 87 1f 41 3f
       -0.29530346 -0.24533828 -0.34680918 0.7543873
0001a0 59 9b 5a bc 61 3c 45 3e bf eb cf 3e 40 97 28 3e
       -0.013342702 0.19261314 0.40609547 0.16463947
0001b0 e5 a5 fc be 77 eb 3a bf 2c 6b 15 be 26 bd 1a bf
       -0.49345317 -0.7301554 -0.14591664 -0.6044487
0001c0 2b 16 b2 be 7b 04 a1 3d 15 85 f3 3e f0 2a b0 3e
       -0.34782538 0.07862183 0.4756247 0.3440776
0001d0 1c 04 ba be 00 14 36 3e a8 15 9f 3e 30 5a dd bd
       -0.3633126 0.17781067 0.3107121 -0.108082175
0001e0 17 be 1c bf f2 85 88 3d 2a 14 eb be 1b 98 6f be
       -0.61227554 0.06666173 -0.4591382 -0.23397867
0001f0 12 fd 2a 3e 27 55 1e 3e de 2f a4 3e f5 4f af bd
       0.16698101 0.1546217 0.3206777 -0.085601725
000200 09 87 10 be ac 84 b4 be 23 44 ab be eb ec ed bc
       -0.14114012 -0.3525747 -0.33450422 -0.029043635
000210 3b 02 f2 3d 71 bf 16 bd ca d6 d8 3c 62 2e e6 3c
       0.11816832 -0.036803667 0.026469607 0.028098289
000220 d6 c8 74 3e 88 fb 98 3d e5 69 24 bd 82 7b 1f 3e
       0.23904738 0.07469851 -0.04014005 0.15574458
000230 1c 08 e2 be 13 19 96 be 2f a3 8d be 34 2c fd bd
       -0.44146812 -0.29316005 -0.27663562 -0.12361947
000240 75 29 88 3d 11 e3 42 3e f8 d0 9a 3f 43 a1 d0 bf
       0.06648532 0.19031931 1.2095022 -1.6299213
000250 a8 36 53 3e 7e 2c 5b 3e 36 88 57 3e 13 a5 4a 3e
       0.20626318 0.21403691 0.21048054 0.19789533
000260 2f 88 21 3e 68 05 73 3e 12 64 14 bf 7c 11 bd be
       0.15774606 0.23732531 -0.57965195 -0.36927402
000270 21 1a c7 be 4a 4a 22 be 2e 87 02 3e f2 21 6b 3e
       -0.38887122 -0.15848652 0.1274688 0.22962168
000280 de f5 87 3f 96 43 aa bf 4e 66 da 3e f8 32 92 3e
       1.0621908 -1.3301876 0.42656177 0.2855451
000290 c9 ef 26 3e f8 c2 13 3e 5f c9 45 3e e2 2d 9a 3e
       0.16302408 0.14429843 0.19315098 0.3011313
0002a0 c6 13 b5 bd 75 90 b3 3b d2 68 e2 3e d2 6e 08 3f
       -0.08841662 0.005479867 0.44220597 0.532941
0002b0 b2 01 7b be a0 82 65 be 1f 44 c1 3e 22 a4 76 3e
       -0.24512365 -0.2241311 0.37747285 0.24086049
0002c0 3f bf 95 be f2 fe 07 bf 23 9a f6 bd e1 90 73 3e
       -0.29247472 -0.5312339 -0.12041118 0.23785736
0002d0 cb 8a aa 3e a6 96 0f 3e 1c 97 ea 3e bb 16 92 be
       0.33309016 0.14022312 0.45818412 -0.28532967
0002e0 e7 c3 02 be 13 39 07 3f 61 0e 97 be 84 23 4c 3e
       -0.12770043 0.52821463 -0.29503158 0.19935423
0002f0 15 8c 99 3e 49 e5 bd 3d a7 13 36 3e 1d b8 16 3d
       0.29989687 0.09272248 0.17780934 0.036796678
000300 21 96 bb 3c 88 55 2a 3d d5 b7 20 bf 2d 82 f8 3c
       0.022898735 0.041585475 -0.62780505 0.03033551

model.attention.feature_attention.k_proj.bias f4 [14]
000000 4c d8 29 c0 c0 6d 27 bf 04 45 29 bf 1f b7 d7 be
       -2.6538267 -0.6540184 -0.66120934 -0.42131898
000010 9d 8c ae be 81 95 d1 be ae 25 b7 be 76 47 08 bd
       -0.34091654 -0.40934375 -0.35770935 -0.033271275
000020 06 37 c7 be 1d 88 93 be 06 4f 11 c0 bf a9 fc bf
       -0.38909167 -0.28814784 -2.2704482 -1.9739302
000030 d4 e3 70 be 4d fe 99 be
       -0.2352441 -0.3007683

model.attention.feature_attention.v_proj.weight f4 [14, 14]
000000 c8 7b 15 3f e1 b0 a5 3e 90 79 b8 3e 4e 0d c2 3e
       0.58392 0.3236151 0.36030245 0.37900776
000010 2b a6 54 3e 29 bc 7b 3e 3b 8c 02 3f c4 ff ef be
       0.20766513 0.24583496 0.50995225 -0.4687482
000020 50 23 6b bd 9d b9 ba bc df c8 17 be 77 6e a9 be
       -0.057406723 -0.022793585 -0.1482272 -0.3309209
000030 07 44 de be 11 a8 50 bf 41 bf 16 bf af 2e b5 be
       -0.43411276 -0.8150645 -0.5888558 -0.3538718
000040 ce b5 c0 be b8 c7 ba be 9c d2 8d be e0 c4 99 be
       -0.37638706 -0.36480498 -0.27699745 -0.30033016
000050 d3 10 04 bf c3 ca 04 3f 91 cb ad 3c 4d 26 b1 3d
       -0.5158817 0.5187189 0.021215232 0.086498834
000060 09 74 4c 3e 12 95 ba 3e b6 bc 01 3f 2a a9 59 3f
       0.19966139 0.36441857 0.50678575 0.8502375
000070 93 40 1b bf d7 aa c4 be ba 4f c9 be 73 ed a5 be
       -0.6064541 -0.3841159 -0.3931864 -0.32407722
000080 9b b7 36 be 60 c2 83 be ec 4e 12 bf a3 d3 14 3f
       -0.17843477 -0.25734234 -0.57151675 0.5813543
000090 a7 e7 81 3b 2d dc c7 3c b2 df 1d 3e 69 49 c2 3e
       0.0039643827 0.02439698 0.15417364 0.37946633
0000a0 7d 2e 0e 3f f5 3b 62 3f 39 cc 15 bf 87 5d b3 be
       0.55539685 0.8837274 -0.58514744 -0.35032293
0000b0 3d 0f b4 be d4 c9 8d be fa 44 5e be 1c ac 6a be
       -0.35167876 -0.27693045 -0.21706 -0.22917217
0000c0 21 06 e4 be 28 8d ed 3e 80 7e cd bc 7f df 9c 3c
       -0.44535926 0.46396756 -0.025084734 0.01914954
0000d0 b8 ff fe 3d 47 ad 85 3e 7c fa f5 3e b3 60 4f 3f
       0.12451118 0.26108763 0.48042667 0.81006926
0000e0 a6 60 14 bf f0 9d b6 be e4 94 a7 be bf f1 b4 be
       -0.57959974 -0.35667372 -0.32730782 -0.35340688
0000f0 9b cd 3d be 85 4e 8e be 88 e7 03 bf 72 67 ec 3e
       -0.18535464 -0.2779428 -0.51525164 0.46172673
000100 ec ce 62 bd 47 52 fe bc 0f f2 2e 3e 48 49 93 3e
       -0.055373117 -0.031045092 0.17084526 0.28766847
000110 18 a4 ea 3e 52 d4 5b 3f d9 50 2d 3f 97 3e b1 3e
       0.4582832 0.8587085 0.6770149 0.34618065
000120 3f ec 98 3e c5 5b 8f 3e a8 2d fd 3d b9 fa c8 3d
       0.2986774 0.27999702 0.12362224 0.098134466
000130 ac f7 fc 3e 09 ad 03 bf d9 3c 18 3e 46 16 0a 3e
       0.4940771 -0.51435906 0.14866962 0.13485059
000140 75 09 22 bd 29 7f 79 be 7c 0c e6 be 05 7a 6d bf
       -0.0395598 -0.24364914 -0.449314 -0.9276431
000150 6d 49 1a 3f f1 8d a2 3e a2 cd 59 3e f1 df 6e 3e
       0.6026829 0.31748918 0.21269849 0.23327614
000160 ec ae 6f 3d ec 60 8e 3d ab 34 d8 3e 4a 58 ef be
       0.058516428 0.0695208 0.42227682 -0.46747047
000170 fc 83 1c 3e 17 9a c9 3d c1 35 1a 3d 42 37 48 be
       0.15284723 0.098438434 0.03764892 -0.19552329
000180 43 29 b0 be 5b f0 5a bf 86 cf a6 3e 21 5e f9 3e
       -0.3440648 -0.85523003 0.32580203 0.48704627
000190 96 8c ec 3e 83 35 13 3f 10 30 1c 3f 7e 41 e7 3e
       0.4620101 0.5750353 0.6101084 0.45167154
0001a0 c4 09 d6 3e 85 d8 04 bf b2 b3 29 bf 13 5e 13 bf
       0.41804326 -0.5189288 -0.6628982 -0.5756542
0001b0 03 97 fe be 59 ba 00 bf 06 b5 bd be 03 54 84 be
       -0.49724588 -0.50284344 -0.37052172 -0.25845346
0001c0 1c 61 25 3f 96 4a e3 3e 50 95 b8 3e 66 6b 97 3e
       0.646013 0.44392842 0.36051416 0.29574126
0001d0 e6 09 56 3d b8 20 d6 3c b6 92 c9 3e cb f9 fa be
       0.052255534 0.026138648 0.39369744 -0.49018702
0001e0 b5 af a9 be 59 f1 46 be 76 0a 50 be 00 b9 3d be
       -0.33141866 -0.19428004 -0.2031649 -0.18527603
0001f0 e7 c0 d4 be 4d 7d 05 bf fe e2 d2 3e d3 42 d0 3e
       -0.41553423 -0.5214432 0.41188806 0.40675983
000200 bd 6d eb 3e c5 53 15 3f 04 9b 04 3f fe 41 9d 3e
       0.4598216 0.5833095 0.51799035 0.3071441
000210 fb b1 b5 3e d8 18 03 bf 55 77 0e bf c4 f4 cf be
       0.3548735 -0.51209784 -0.55650836 -0.4061643
000220 83 32 ae be 82 fa a6 be 0b 89 c7 be e2 4e b9 be
       -0.34022912 -0.32612997 -0.38971743 -0.36192995
000230 21 a5 f7 be 51 a0 dc be c8 11 df be 63 13 0d bf
       -0.4836817 -0.43091062 -0.43568254 -0.55107707
000240 81 53 e9 be 15 af 59 be a5 77 c8 be aa 5d 0c 3f
       -0.4557152 -0.21258195 -0.39153782 0.5483042
000250 45 98 06 3f 7f c1 a6 3e bd 9b 81 3e 0f dd c9 3e
       0.52576095 0.325695 0.2531413 0.39426467
000260 25 0a d3 3e 12 25 09 3f 6d d7 31 bf 1a c5 b9 be
       0.41218677 0.5357219 -0.6946934 -0.3628319
000270 6d 32 b6 be c9 d8 a7 be 0c 1f 84 bd b5 19 1b 3d
       -0.35585347 -0.3278258 -0.06451234 0.037866313
000280 22 3c da be 28 8f e3 3e ce 7e a4 3e 9b e4 ce 3d
       -0.42624003 0.44445157 0.32127994 0.10102197
000290 41 c3 22 3e 2d 00 5b 3e f5 3c ca 3e 67 f7 15 3f
       0.15894796 0.21386786 0.39499632 0.5858063
0002a0 9b 34 36 bf 76 d4 da be 3b 2d ae be 1a b5 86 be
       -0.7117402 -0.4274022 -0.34018883 -0.26310045
0002b0 bc 17 08 3d f2 6f aa 3d 53 1e cd be b8 92 f1 3e
       0.03322576 0.08322133 -0.40062198 0.4718225
0002c0 34 45 7d 3e 08 0d 03 3e 05 89 dc 3d 09 d0 60 3e
       0.2473343 0.1279794 0.10768322 0.21954359
0002d0 c6 9b ab 3e 60 a3 15 3f d7 f7 0e bf a0 c8 df be
       0.33517283 0.58452415 -0.55846924 -0.43707752
0002e0 1e 75 d0 be b9 31 d6 be 65 95 08 be f5 e4 8e bd
       -0.40714353 -0.4183481 -0.1333824 -0.06977264
0002f0 7c 41 d5 be 71 e7 f5 3e 4b a1 b3 3e 0c da 5a 3e
       -0.41651523 0.48028138 0.35083994 0.21372241
000300 f3 57 53 3e 4b 2f 5c 3e f9 24 b1 3e 69 4e 00 3f
       0.20639019 0.21502416 0.3459852 0.50119644

model.attention.feature_attention.v_proj.bias f4 [14]
000000 aa ce 06 bf a6 60 0d 3f 04 c6 14 3f ed 39 00 3f
       -0.52659094 0.552256 0.5811465 0.5008839
000010 74 05 09 3f 03 c2 04 bf 22 8c dd be 9a 28 04 bf
       0.53523946 -0.5185854 -0.43270975 -0.51624453
000020 89 d9 f0 be 2b 4c f4 be 50 15 08 3f 90 fb f0 3e
       -0.47040966 -0.47714362 0.5315752 0.47066927
000030 a4 b1 ee 3e f4 94 ec 3e
       0.46619904 0.46207392

model.attention.feature_attention.out_proj.weight f4 [14, 14]
000000 b0 d8 1c 3e ed 25 2d be e6 dd 1f be d2 18 20 be
       0.15317035 -0.16908999 -0.15611991 -0.15634468
000010 7c 27 32 be 34 22 5d 3e 51 b4 39 3e bc fc 0c bd
       -0.17397875 0.21595079 0.18135192 -0.034420714
000020 20 4e bd 3d 0e 71 8a bb c7 b7 18 ba e3 9a b1 bd
       0.09243417 -0.004224903 -0.0005825725 -0.086721204
000030 86 c9 11 be 4e 54 80 bd 2b 68 eb 3e 87 65 fd be
       -0.14237031 -0.0626608 0.4597791 -0.49491522
000040 26 e2 f4 be c0 79 fd be 83 2b f2 be e4 63 ed 3e
       -0.47828788 -0.4950695 -0.47298822 0.46365273
000050 fb 9f ee 3e e7 dd f5 3e e9 88 01 3f db 4b e7 3e
       0.4660643 0.4802086 0.50599533 0.4517506
000060 eb 57 ee be eb b2 e1 be 4f 4e f5 be 14 5f d7 be
       -0.4655145 -0.44081816 -0.47911307 -0.42064726
000070 80 a9 d9 3e 73 94 08 bf 8a e6 e2 be 43 c7 f7 be
       0.4251213 -0.53351516 -0.44316512 -0.48394212
000080 f8 0a ec be c3 b2 b9 3e 11 05 94 3e a0 a3 24 3f
       -0.46102118 0.36269197 0.28910115 0.6431217
000090 ab c4 c9 3e 36 aa 06 3f aa 55 ff be 23 22 c2 be
       0.39407858 0.5260347 -0.49870044 -0.3791667
0000a0 02 d6 ba be 9a aa cb be 91 0a 08 3f 3f 33 08 bf
       -0.364914 -0.39778596 0.53141123 -0.53203195
0000b0 5a 21 0d bf ab 8b 05 bf 90 b7 e7 be f6 32 f1 3e
       -0.55129015 -0.5216624 -0.45257235 0.47109193
0000c0 11 1e b8 3e 5f bd 1f 3f ab ad c6 3e 6f 43 07 3f
       0.3596044 0.6239833 0.38804373 0.5283727
0000d0 3d 6b 0e bf 51 b8 b4 be 44 9d c3 be 7b 06 d7 be
       -0.5563238 -0.35296872 -0.38205922 -0.41997132
0000e0 20 38 db 3e f0 92 ea be 61 a2 c3 be 19 cb ce be
       0.42816257 -0.4581523 -0.38209823 -0.40389326
0000f0 8a ab ba be cf 5a a1 3e c2 e8 9d 3e eb 29 09 3f
       -0.36459 0.31514594 0.30841643 0.53579587
000100 9b 0c b1 3e ae bf da 3e c7 87 d4 be ef 25 b7 be
       0.3457993 0.42724365 -0.4150984 -0.3577113
000110 e5 e6 90 be 10 8f bc be 52 93 19 3f 60 72 23 bf
       -0.2830116 -0.36827898 0.5999042 -0.638464
000120 e8 e4 24 bf 08 ab 18 bf 68 62 24 bf 02 d8 29 3f
       -0.64411783 -0.5963597 -0.64212656 0.66345227
000130 38 75 19 3f ea b0 03 3f 5c 8e 14 3f a2 7a 02 3f
       0.59944487 0.51441824 0.58029723 0.5096837
000140 55 56 12 bf 52 f3 11 bf 48 ee 15 bf 50 3d 0d bf
       -0.5716298 -0.570119 -0.58566713 -0.5517168
000150 66 70 26 3f 90 b7 27 bf 54 b2 1c bf d4 e9 2a bf
       0.65015256 -0.6551447 -0.6120961 -0.66763043
000160 72 c0 2e bf da 1e 15 3f 76 72 0a 3f 7e b2 2c 3f
       -0.682624 0.582502 0.54080904 0.6745986
000170 07 2b 07 3f 7e 4e 17 3f 5e bc 1c bf 47 b3 f9 be
       0.5280003 0.59104145 -0.61224926 -0.4876959
000180 03 0b 07 bf de e1 12 bf 4d e5 18 3f 01 25 2c bf
       -0.5275118 -0.57375896 0.59724885 -0.67243963
000190 8a 8c 19 bf 7f f4 20 bf 3b 55 20 bf 4a 11 36 3f
       -0.5998007 -0.6287307 -0.6263005 0.7112013
0001a0 42 58 20 3f 30 2a 01 3f 5c 54 16 3f f6 bc 06 3f
       0.6263467 0.50455 0.5872247 0.5263208
0001b0 39 32 16 bf 45 f8 1c bf dc 4c 13 bf 56 dd 03 bf
       -0.58670384 -0.6131633 -0.57539153 -0.51509607
0001c0 fb c8 80 be 2a 7d ab 3e ba 23 5c 3e dd 06 8b 3e
       -0.25153336 0.3349393 0.21498004 0.27153674
0001d0 e1 01 8d 3e 79 0e 72 be a1 c2 34 be 53 6a 88 be
       0.27540496 -0.23638333 -0.1765237 -0.2664362
0001e0 2f 09 16 be 1b ea 1c be 18 0b 46 3e 7d ae ff 3d
       -0.14651941 -0.15323679 0.1934017 0.12484453
0001f0 60 18 18 3e 98 47 33 3e 9b 83 f4 be c2 2b e6 3e
       0.14853048 0.1750778 -0.47756657 0.4495526
000200 5f fe f8 3e 5f 4e 06 3f 70 f9 d7 3e ba 2c 01 bf
       0.4863157 0.52463335 0.42182493 -0.5045887
000210 ed 84 df be ac 80 9e be 6a 29 e7 be bc 31 a0 be
       -0.43656102 -0.30957544 -0.45148784 -0.31287944
000220 15 80 de 3e a1 f5 f9 3e 14 0b 03 3f fc a6 be 3e
       0.43457094 0.48820212 0.5118878 0.37236774
000230 42 97 ba 3e 74 3c d0 be 0f 13 c0 be 5e 7b c1 be
       0.36443526 -0.40671122 -0.3751454 -0.37789434
000240 79 7e c0 be 73 0c be 3e 7d 7c b2 3e 9b bf 9c 3e
       -0.3759649 0.37118873 0.34860602 0.30614933
000250 75 a1 8f 3e 88 55 8d 3e 22 bd 8a be 17 ff 78 be
       0.2805287 0.27604318 -0.27097422 -0.24316059
000260 25 5c 8d be ce 94 99 be 23 ef 87 be bf 1e aa 3e
       -0.27609363 -0.2999634 -0.26549634 0.33226582
000270 a5 4a 80 3e 38 63 8b 3e 0e d4 93 3e 94 28 48 be
       0.2505695 0.27224135 0.28872722 -0.1954673
000280 37 eb 8a bd ef 69 fe be 8c 20 83 be 1a 13 b1 be
       -0.06783145 -0.49690196 -0.2561077 -0.34584886
000290 9a e2 d3 3e 71 46 54 3e 1a 77 5e 3e 44 d4 53 3e
       0.4138382 0.20729996 0.21725121 0.20686442
0002a0 9e 1e a7 3e 06 57 bf be e1 83 b5 be 69 9e 9e be
       0.32640547 -0.3737108 -0.35452178 -0.30980232
0002b0 73 60 ba be ca be 88 3e 52 41 73 3e 2b 87 08 3f
       -0.3640171 0.2670806 0.23755386 0.5333125
0002c0 76 6a b0 3e b4 68 e2 3e 05 50 d4 be dd d0 81 be
       0.34456223 0.44220507 -0.414673 -0.25354663
0002d0 a7 09 a1 be 49 13 93 be 42 51 a6 be 65 a9 bd 3e
       -0.31452677 -0.2872565 -0.3248387 0.370433
0002e0 26 b2 a1 3e ff 0a af 3e 54 d2 b2 3e 1c ec a7 be
       0.3158123 0.34188077 0.34926093 -0.32797325
0002f0 a8 92 b1 be 97 7b fc be d8 53 cd be 9f a5 bd be
       -0.34682202 -0.49313042 -0.4010303 -0.3704042
000300 53 fc d6 3e 91 9b bf 3e aa ef d0 3e f2 36 bb 3e
       0.41989383 0.37423375 0.4080785 0.36565357

model.attention.feature_attention.out_proj.bias f4 [14]
000000 fb e5 3c bc c9 db 40 be 6d 78 6f bd 2a 64 ec bd
       -0.011529441 -0.18833841 -0.058464456 -0.11542542
000010 33 f1 9e bd 00 88 80 be 8d 3c c1 be 6a 33 27 be
       -0.07760849 -0.2510376 -0.3774151 -0.16328207
000020 45 4d 4a be 64 4f 87 3d f4 53 88 bc fd 4b 27 be
       -0.19756038 0.066069394 -0.016641594 -0.16337581
000030 7f ff cb bc fa 21 f3 bd
       -0.024902103 -0.11871715

model.attention.norm1.weight f4 [6]
000000 85 8f f2 3f 41 78 fc 3f c2 a3 d6 3f 00 a0 44 40
       1.8950049 1.9724199 1.6768725 3.0722656
000010 0d 87 fb 3f 6f 2a 14 40
       1.9650589 2.31509

model.attention.norm1.bias f4 [6]
000000 ab 90 87 bf 99 3e 92 3f 69 bb 33 be ef a5 8b 3f
       -1.0591024 1.1425353 -0.1755196 1.0910014
000010 17 8d 9e 3f 99 83 8a bf
       1.2386807 -1.082141

model.attention.norm2.weight f4 [14]
000000 c3 23 f3 3f 42 d9 cf 3f 76 ab c3 3f b8 cd d7 3f
       1.8995289 1.6238177 1.5286701 1.6859655
000010 f6 19 ce 3f 06 9c d8 3f 65 3a 1f bd 12 fc fc bd
       1.6101673 1.6922615 -0.03887405 -0.12352766
000020 8d 18 dc 3f 09 f9 bc 3f 7e f3 cb 3f e0 3a ca 3f
       1.7194992 1.47635 1.5933683 1.5799217
000030 3f 25 d6 3f ee 77 f5 3f
       1.6730117 1.9177225

model.attention.norm2.bias f4 [14]
000000 85 2c 0c be 77 94 e8 be 95 1a 75 be 68 8a 66 be
       -0.13688858 -0.4542577 -0.23935921 -0.22513735
000010 c3 36 60 be 53 63 09 bf ee 9d bd bf e9 fa e2 3f
       -0.2189589 -0.5366718 -1.4813821 1.7732822
000020 0f 88 b2 3e 26 9f 95 3e e9 4e b4 3e 90 a2 8e 3e
       0.3486943 0.29222983 0.35216454 0.278584
000030 4d ad 92 3e ce 5c 87 3e
       0.28647843 0.26437992

model.Linear.0.weight f4 [1, 14]
000000 48 75 85 3e 06 e5 c2 3e 3c 6e b6 3e e4 7b ea 3e
       0.2606604 0.38065356 0.35630977 0.45797646
000010 88 49 db 3e 50 43 09 3f a8 04 2e 3f 00 81 33 3f
       0.42829537 0.53618336 0.67975855 0.70118713
000020 49 38 bf 3d 71 1e c6 3e 96 9b be 3e 6b 9b b0 3e
       0.093369074 0.386951 0.37228078 0.34493575
000030 07 2f a3 3e 9c f8 98 3e
       0.31871817 0.29877174

model.Linear.1.weight f4 [1, 14]
000000 17 86 77 bd 6a 30 d1 3c d0 23 2e 3d f7 8f 98 3d
       -0.060430612 0.025535781 0.042514622 0.07449334
000010 82 74 0d 3e a9 ba 90 bc d7 c1 1b 3c 39 3d ee bc
       0.13813975 -0.017667131 0.009506664 -0.029081928
000020 11 71 6b 3b 52 58 8d 3d d1 96 34 3d a6 35 06 bd
       0.0035925547 0.069016114 0.044089142 -0.032766007
000030 d7 4d 8d 3d 02 75 33 bc
       0.068996124 -0.01095319

model.Linear.2.weight f4 [1, 14]
000000 e2 01 da bc 89 05 65 3c 25 83 42 3d 2e 8d b7 ba
       -0.026612226 0.01397837 0.04748835 -0.0014003867
000010 36 0b 5d 3c 7d e8 4f bb 78 4e f8 3c 98 00 55 b9
       0.013491442 -0.0031724267 0.030310854 -0.00020313484
000020 15 fa 89 bc 3d c4 a8 bc c7 e5 e2 bc c8 eb 36 3c
       -0.016842881 -0.020601386 -0.027697457 0.011164613
000030 8f 51 ea 3c c1 d1 7e 3d
       0.028603343 0.062211756

model.Linear.3.weight f4 [1, 14]
000000 96 b4 26 be 48 38 79 bd d0 6e 9e 3c 2e 4a 8a 3d
       -0.16279826 -0.06084469 0.019339949 0.0675243
000010 59 a2 71 3d 49 3c 95 bc be ab cd 3c 97 6e 78 bd
       0.058992717 -0.018217223 0.025106307 -0.06065234
000020 bd 36 55 bc 79 43 ae 3c 4d 27 c3 3c cf eb d9 bb
       -0.013013539 0.021272408 0.023822451 -0.006650425
000030 c3 d6 8d 3b a4 b1 03 3d
       0.00432858 0.032151833

model.Linear.4.weight f4 [1, 14]
000000 3f 25 e2 bd 05 3b c9 bc 65 c4 f9 3c b7 ce 7e bd
       -0.110422604 -0.024564276 0.030489156 -0.062208857
000010 cc 8d d0 bc 3f c1 a3 bd 8c e5 72 bd 96 9f c5 bd
       -0.025458239 -0.07995843 -0.059300944 -0.09649579
000020 f0 8d ee 3c 69 02 70 3c d6 2c 21 be c0 82 a0 bc
       0.029120415 0.014649012 -0.1573976 -0.019593596
000030 e7 5c 23 bd 06 89 39 3b
       -0.03988352 0.0028310432

model.Linear.5.weight f4 [1, 14]
000000 da bb 98 3e 40 96 6e 3d 12 4b 96 3d e9 ad 3c 3d
       0.2983082 0.05824876 0.07338537 0.04606429
000010 9e 6a 00 3e 43 e0 22 bd 47 07 4b bd d0 0e 39 bd
       0.12540671 -0.039764654 -0.049567487 -0.045180142
000020 91 f9 e8 3e 34 02 04 3f 52 9c 23 3e 27 a9 ec 3e
       0.45502904 0.5156586 0.159776 0.46222803
000030 07 0c 22 3e 56 ac f9 3e
       0.158249 0.48764294

model.projector.weight f4 [1, 6]
000000 bf 5f 5a 35 2d d0 9c 3e 6a bf 6b 3e 09 b4 81 3e
       8.135066e-07 0.30627576 0.23022237 0.25332668
000010 e8 a3 54 3e 4f 39 57 3f
       0.2076565 0.8407182

exp_avg f4 [1, 1, 6]
000000 2a 66 98 43 77 a8 89 c3 3c ac 03 c0 d1 a8 ac 42
       304.79816 -275.31613 -2.0573874 86.32972
000010 11 f5 90 43 ae 62 8c 40
       289.91458 4.387046

exp_avg_sq f4 [1, 1, 6]
000000 29 da ef 4a 1b 92 dc 49 f9 ef 67 46 a3 d5 54 48
       7.8594765e+06 1.8069154e+06 14843.993 217942.55
000010 47 1d 53 4a ab f7 fe 44
       3.4588978e+06 2039.7396

exp_avg f4 [1, 1, 6]
000000 5a 55 dc c0 a1 d3 b4 41 e7 7f 8d 41 a0 17 95 42
       -6.885419 22.603334 17.687452 74.54614
000010 ec 2f 0a 42 64 b1 0f c1
       34.5468 -8.980808

exp_avg_sq f4 [1, 1, 6]
000000 48 77 8f 45 3b 77 16 46 7a 1e d7 45 33 b2 ee 47
       4590.91 9629.808 6883.8096 122212.4
000010 e7 f7 6e 46 cb 37 14 46
       15293.976 9485.948

exp_avg f4 [6, 6]
000000 41 d0 86 c0 c3 16 18 bf c3 0e ab 41 b5 55 d5 3f
       -4.2129216 -0.5940973 21.382208 1.6666781
000010 2f 12 56 c1 07 05 48 c1 06 9a 92 3f db 28 a3 bf
       -13.379439 -12.501227 1.1453254 -1.2746843
000020 26 ad bf 3f 44 ec 15 40 c9 82 86 bf f1 f5 3f c0
       1.4974716 2.3425455 -1.0508662 -2.999386
000030 70 56 89 40 85 55 83 c0 89 ac 20 c1 30 36 08 c0
       4.2918015 -4.1041894 -10.042123 -2.1283073
000040 9d 34 5e 40 8c 15 39 41 36 44 83 bf 5b 6d 92 3e
       3.4719613 11.56776 -1.0255191 0.28599057
000050 56 8c 55 3f 48 4e 8f bf d4 04 20 bf 27 02 b4 3f
       0.8341726 -1.1195765 -0.6250737 1.4063157
000060 18 34 45 c0 47 0f 8a 40 a0 48 83 3f f2 b9 b7 3e
       -3.0813046 4.314365 1.0256538 0.35884053
000070 f9 69 26 40 7f 78 a4 c0 9f 0a 83 3f a3 48 cd bf
       2.600218 -5.139709 1.0237616 -1.6037792
000080 bc 69 43 3b cd c8 21 be fd 23 74 bf 70 ca be 3f
       0.0029817661 -0.15799256 -0.95367414 1.4905529

exp_avg_sq f4 [6, 6]
000000 85 a3 45 44 f2 06 c4 44 87 9d 8e 45 52 02 cb 44
       790.555 1568.217 4563.691 1624.0725
000010 f2 6f 9d 44 d1 3b aa 46 e2 fe 31 43 f5 b3 95 42
       1259.4983 21789.908 177.99564 74.85148
000020 fb f3 72 44 11 23 9f 43 66 54 93 43 40 c4 23 45
       971.8122 318.27396 294.65936 2620.2656
000030 18 fb 41 44 19 79 f1 44 54 98 1f 44 4e 47 1f 44
       775.92334 1931.7843 638.3801 637.11414
000040 24 1d 13 45 5a f3 33 46 59 5f 9f 41 d0 55 36 42
       2353.8213 11516.838 19.921556 45.5838
000050 79 8f b8 42 37 8a e9 41 48 d3 1e 42 da 04 d1 42
       92.28022 29.192488 39.70633 104.509476
000060 de 24 b3 43 f6 1b 54 43 96 b0 52 42 a6 de 05 43
       358.28802 212.10922 52.672447 133.86972
000070 e2 46 05 44 a6 17 15 44 db 26 f3 42 8c 54 7c 42
       533.10754 596.3695 121.57589 63.082565
000080 89 ae a4 41 aa f0 49 42 25 5a 2a 43 4a a6 f0 42
       20.585222 50.485023 170.35213 120.32478

exp_avg f4 [6]
000000 94 5d 54 c0 ec d3 ff be 9f 1c 1d 3f 66 d9 77 3d
       -3.3182116 -0.4996637 0.613718 0.06051006
000010 d1 e8 67 3f 3b 95 c1 be
       0.90589625 -0.37809166

exp_avg_sq f4 [6]
000000 d0 a3 9b 42 a4 f2 84 42 b4 36 f7 41 ef cb 46 41
       77.81995 66.47391 30.90171 12.424788
000010 fd b3 e7 41 14 1a 35 41
       28.962885 11.318867

exp_avg f4 [6, 6]
000000 25 4f e0 3f 26 5f a6 40 b8 75 05 c2 52 79 14 40
       1.7524153 5.199115 -33.36496 2.3199048
000010 1e 21 95 41 ad d4 99 41 fd 22 bf be cf 56 69 bf
       18.64117 19.228846 -0.3733138 -0.91148084
000020 e0 f1 fa 3f 6b 2a dc bf e5 0e c5 bf 2d 4b c8 3f
       1.9605064 -1.7200445 -1.539517 1.5647942
000030 a0 e0 8f c0 99 25 6d bf e4 41 5d 41 f3 06 dc 3f
       -4.49617 -0.92635494 13.828587 1.7189621
000040 2b 97 04 40 80 21 8c c1 2d 10 3a 3e 71 c0 2c 3f
       2.0717266 -17.516357 0.18170233 0.6748114
000050 f3 75 93 bf 6a 99 a4 3e 76 5c 83 3e e8 b2 53 3e
       -1.152037 0.32148296 0.2565648 0.20673716
000060 fe 97 91 c0 46 c5 f1 40 da 25 f1 c0 be 92 d7 bf
       -4.5498037 7.555331 -7.5358706 -1.6841657
000070 5e f7 55 41 75 64 86 c0 4a eb 6a 3f 20 d1 39 c1
       13.372892 -4.199763 0.9176527 -11.613556
000080 72 67 9f 41 c6 e1 67 40 1d 45 92 c1 fd d9 60 bf
       19.92551 3.623155 -18.283747 -0.87832624

exp_avg_sq f4 [6, 6]
000000 19 ef 2f 46 85 ec 26 46 b3 75 78 47 13 eb ab 46
       11259.774 10683.13 63605.7 22005.537
000010 1f 39 b9 46 bd 9d ce 47 6a f5 bc 42 11 68 01 43
       23708.56 105787.48 94.479324 129.40651
000020 6c ea ab 44 ea 9d 4f 43 bf 4a f2 43 39 42 a7 44
       1375.3257 207.61685 484.58395 1338.0695
000030 d5 83 8b 46 7b e7 f0 46 8b ca 93 46 43 bb 24 45
       17857.916 30835.74 18917.271 2635.7039
000040 be 06 87 47 de d8 b9 45 84 87 b1 42 a8 03 a1 43
       69133.484 5947.1084 88.76468 322.02856
000050 ab 42 15 44 da 02 d2 41 90 d7 63 44 9e 1b e5 41
       597.0417 26.251392 911.36816 28.638485
000060 13 0e ed 43 38 e6 74 44 55 f8 40 44 46 f1 f7 42
       474.10995 979.59717 771.8802 123.97124
000070 95 6b 1a 45 11 c0 84 43 6c 50 26 44 5b f1 00 45
       2470.7239 265.50052 665.2566 2063.0847
000080 66 71 a4 45 13 46 cf 43 9b 8f a7 45 cb df 52 44
       5262.175 414.54745 5361.9507 843.49677

exp_avg f4 [6]
000000 b2 1b a3 40 58 d7 b9 be e0 bd a1 bf 09 03 32 3e
       5.097131 -0.36297107 -1.263607 0.1738397
000010 5a 6b 4b 40 0e 76 95 c0
       3.1784272 -4.670661

exp_avg_sq f4 [6]
000000 33 4b 59 45 73 ce 94 42 f7 dc 91 45 ce ec 75 42
       3476.7 74.40322 4667.6206 61.481255
000010 15 90 11 43 c5 f4 a3 43
       145.56282 327.91226

exp_avg f4 [6, 6]
000000 92 69 9d bf 1e 52 16 40 16 36 11 c0 45 f0 28 3f
       -1.2297843 2.348762 -2.2689261 0.6599162
000010 cb 4f 8f 40 52 a3 36 c0 c3 4f 55 3f 5d b2 be bf
       4.4784904 -2.8537183 0.8332483 -1.4898182
000020 36 58 1a bf b1 5a 0b 3e 38 2a 9c be 5f 77 d5 3f
       -0.6029085 0.13608815 -0.3050096 1.6677054
000030 7d 6c 4a c0 3a 0d b8 40 ce 4b ab bf b5 a5 e3 3e
       -3.1628716 5.7516146 -1.3382509 0.44462362
000040 77 b3 b3 40 c7 59 d0 c0 e3 9e ac 40 66 8a 00 c1
       5.6156573 -6.510959 5.3943954 -8.033789
000050 ae e2 b5 3f 59 be 99 bf df 99 12 c1 cd 87 22 41
       1.4209802 -1.2011214 -9.162566 10.1581545
000060 c3 e5 cf c0 4e c8 19 41 65 09 e5 bf aa 15 b1 3f
       -6.496797 9.6114025 -1.7893492 1.3834736
000070 fd 47 31 41 f2 00 41 c1 68 e7 ca 40 3c 24 16 c1
       11.080075 -12.062731 6.340748 -9.383846
000080 b6 bf de 3f 18 9e ad bf d1 02 2d c1 6e 9c 3c 41
       1.7402256 -1.3563871 -10.813188 11.788191

exp_avg_sq f4 [6, 6]
000000 b1 8d c8 42 d6 2d 33 43 54 ca 00 43 de 40 8e 41
       100.27674 179.17905 128.79034 17.781673
000010 74 d2 a7 43 8f bd c6 43 e3 06 6e 43 a0 f2 e3 43
       335.64417 397.48093 238.0269 455.8955
000020 65 23 1f 43 70 90 e3 41 db c9 5c 44 7b eb 66 44
       159.13826 28.445526 883.154 923.6794
000030 bd 6c fd 43 6c fc 8e 44 eb 63 a0 43 e7 d1 48 42
       506.84952 1143.8882 320.7806 50.204983
000040 ba 4d 09 45 71 58 f5 44 5a 9a 96 44 6f 0a 08 45
       2196.858 1962.7638 1204.8235 2176.652
000050 4b 3e 28 43 bd e3 0f 42 dd 53 6c 45 55 36 4d 45
       168.24333 35.9724 3781.2415 3283.3958
000060 35 85 c2 44 55 c5 2f 45 e8 cd 57 43 dd c0 36 42
       1556.1627 2812.3333 215.80432 45.688343
000070 72 94 98 45 78 b2 84 45 d3 de ba 44 00 cc 28 45
       4882.5557 4246.3086 1494.9633 2700.75
000080 db f4 4e 43 8b 92 2f 42 bb 85 92 45 27 e9 7e 45
       206.95647 43.89311 4688.7163 4078.572

exp_avg f4 [6]
000000 09 cd 84 3f e1 12 1b be 56 8f bc 3f 75 2e 1a c0
       1.0375072 -0.1514392 1.4731243 -2.4090855
000010 ce 4c 39 40 61 e8 34 c0
       2.8953128 -2.8266833

exp_avg_sq f4 [6]
000000 50 9b 97 41 a0 01 3c 42 96 c1 f1 42 f9 c8 5d 43
       18.950836 47.001587 120.8781 221.78505
000010 db 3d 8f 43 70 8d 89 43
       286.48325 275.10498

exp_avg f4 [6, 6]
000000 9c 48 b3 c0 bf 98 bb c0 c0 3c bb 40 a2 e3 b7 c0
       -5.6026134 -5.862396 5.851166 -5.746537
000010 86 07 b9 40 fb 27 bb c0 8e fa 3b 43 5b 64 44 43
       5.7821684 -5.8486304 187.97873 196.39201
000020 10 db 42 c3 b5 31 47 43 d1 70 48 c3 09 98 4b 43
       -194.85571 199.19417 -200.44069 203.59389
000030 ea 6d f2 41 f5 5f fd 41 2e 6b fb c1 fb bb 00 42
       30.303669 31.671854 -31.427334 32.183575
000040 05 8b 01 c2 37 96 03 42 5d 98 26 c2 2a 05 2e c2
       -32.38576 32.896694 -41.648792 -43.505043
000050 f8 9e 2c 42 39 4f 32 c2 11 6e 33 42 c6 5a 36 c2
       43.155243 -44.577366 44.857487 -45.588646
000060 51 36 54 c3 fc cc 5d c3 23 17 5c 43 06 73 61 c3
       -212.21217 -221.80072 220.09038 -225.44931
000070 53 e2 62 43 51 7b 66 c3 ae 79 ab be 1c c0 a4 be
       226.88408 -230.4817 -0.33491272 -0.32177818
000080 e1 56 a6 3e 01 98 7e bd ef 04 81 3d 61 10 85 bd
       0.32488158 -0.06215668 0.06299769 -0.06497265

exp_avg_sq f4 [6, 6]
000000 ae 52 1e 45 a4 91 2b 45 e4 5c 29 45 91 0d 27 45
       2533.1675 2745.1025 2709.8057 2672.848
000010 2d 36 29 45 97 59 2e 45 cf 99 ca 48 e2 cb dc 48
       2707.386 2789.5994 414926.47 452191.06
000020 45 8a d9 48 1d de ee 48 8f 36 f2 48 36 a5 f9 48
       445522.16 489200.9 496052.47 511273.7
000030 5e ae 4f 46 02 83 62 46 39 32 5f 46 ee e5 72 46
       13291.592 14496.752 14284.556 15545.482
000040 f3 3c 76 46 3a c7 7d 46 75 5f 0a 47 5e 89 16 47
       15759.237 16241.807 35423.457 38537.367
000050 e3 49 14 47 cc 73 25 47 33 d5 27 47 16 fc 2c 47
       37961.887 42355.797 42965.2 44284.086
000060 de b3 24 49 d1 60 33 49 2a b8 30 49 23 cf 42 49
       674621.9 734733.06 723842.6 797938.2
000070 de 8b 45 49 b1 9a 4b 49 26 12 e6 3e 51 35 e1 3e
       809149.9 833963.06 0.4493572 0.4398599
000080 e4 95 e3 3e 8e a2 39 3e ae b8 35 3e 80 65 4a 3e
       0.44450295 0.18128416 0.17746231 0.19765282

exp_avg f4 [6]
000000 8c f0 df 3e 7b 0d 5a c1 a6 4a 0c c0 81 cc 40 40
       0.4373821 -13.628291 -2.1920562 3.012482
000010 4e 64 75 41 07 b2 89 38
       15.336988 6.565829e-05

exp_avg_sq f4 [6]
000000 a9 dc 46 41 2c c7 0c 45 42 e8 8f 42 1a 82 41 43
       12.428872 2252.4482 71.95363 193.50821
000010 1b 30 65 45 7b cf 16 35
       3667.0066 5.618128e-07

exp_avg f4 [14, 14]
000000 d4 df c2 40 d3 c7 a8 40 6a 3e d2 40 e2 ae d2 40
       6.089823 5.2743926 6.570119 6.583848
000010 32 12 60 41 e0 93 6a 41 04 19 0a 41 a3 87 25 c1
       14.004442 14.661102 8.631107 -10.345614
000020 9c ee 13 c1 5a 30 8a c1 5f d9 86 c1 83 1c 85 c0
       -9.245754 -17.27361 -16.856138 -4.1597304
000030 e3 2a 22 c1 58 d7 b4 3f cb 55 19 c1 c9 9b cb c0
       -10.13547 1.4128218 -9.583446 -6.3627667
000040 7b 0a 47 c0 30 1f 60 c1 21 22 0f c1 17 26 1e c1
       -3.1100147 -14.007614 -8.945832 -9.884299
000050 be 8e 83 c0 0f 1d ab 40 bf 5f 18 41 c1 16 8c 41
       -4.1111746 5.347297 9.5233755 17.51111
000060 b8 09 a0 41 39 06 2c 40 69 99 71 40 e2 bf 0f 41
       20.004745 2.6878798 3.7749884 8.984346
000070 72 ed 94 bf 4f d5 5f c1 e7 06 29 40 6d 15 80 41
       -1.1634963 -13.989577 2.6410463 16.010462
000080 25 d3 21 c0 0c 8a 12 41 87 d6 3f c0 0a 75 20 40
       -2.5285122 9.158703 -2.9974687 2.5071435
000090 9b 5e 02 c1 16 ef 9a c0 5c 90 10 c0 85 97 21 be
       -8.148097 -4.8416853 -2.258811 -0.15780456
0000a0 d1 dd 0d 41 dc c1 79 c1 9c 05 a1 3f ae fd fc 3f
       8.866654 -15.609829 1.2579837 1.9764917
0000b0 40 83 1f c0 85 dc 9f bf 4d 7c bf c0 9a 09 1a c1
       -2.4923859 -1.2489172 -5.9839234 -9.627344
0000c0 81 97 4d 40 33 f4 19 c0 75 0f 7e 40 e6 c0 a9 40
       3.212372 -2.4055297 3.9696934 5.304797
0000d0 2a 27 57 41 88 1e 30 40 3a 8e 66 40 23 c0 3e 41
       13.447062 2.7518635 3.6024308 11.921908
0000e0 6f 9e 50 41 ba 33 40 41 8b e3 df c0 83 e3 c7 c0
       13.03868 12.012629 -6.9965262 -6.2465224
0000f0 a7 2d 2c c0 91 8b 8a bf b6 2a b7 bf 66 6b 2b 40
       -2.6902864 -1.0823842 -1.4309909 2.67843
000100 6c 7e c8 40 c7 ad 25 41 de 5f 0b 41 db 58 1a 40
       6.2654324 10.354926 8.710905 2.4116733
000110 fe b2 ef c0 c9 25 69 c1 35 5a 5b 41 94 8a 2f 41
       -7.4905996 -14.571725 13.709523 10.971333
000120 89 d6 05 c0 6c 15 29 c0 36 a9 48 c0 88 0b af c0
       -2.0912192 -2.6419325 -3.1353278 -5.4701576
000130 84 2c 01 c1 da d7 23 41 ac af a4 bc 48 3f 14 40
       -8.073368 10.240198 -0.020103298 2.3163624
000140 b6 e4 34 40 96 6c 1b c0 20 64 ad c0 cb 4d ab c0
       2.8264594 -2.4285026 -5.4184723 -5.353246
000150 e0 94 b9 c1 c7 80 a8 c1 9d 0b c1 c0 31 12 d4 40
       -23.197693 -21.06288 -6.0326676 6.6272206
000160 3c 71 c9 3f e3 ea 8a 40 1d 76 4e 40 2e 8e a9 c0
       1.5737681 4.3411727 3.225959 -5.298606
000170 03 d2 b5 c0 f3 12 83 c0 e1 59 23 3c 6f 91 98 bf
       -5.681886 -4.096063 0.009970159 -1.1919383
000180 2f fa 91 41 b2 ea c8 40 c5 a7 98 c1 bf 2a ba c0
       18.24716 6.2786493 -19.081919 -5.817718
000190 12 a7 b6 c0 f8 02 46 c1 0e 14 00 c1 f6 eb 60 c1
       -5.7078943 -12.375725 -8.004896 -14.057608
0001a0 5c 3b b8 c0 a0 ca b9 40 03 61 b8 41 37 21 61 41
       -5.757246 5.8059845 23.047369 14.070609
0001b0 a2 29 7c 41 26 4d 25 be 53 22 ce c0 04 3f af c0
       15.760164 -0.16142711 -6.44169 -5.4764423
0001c0 ca 80 fe bf 57 3d da c0 01 41 15 c1 6d 7c a6 c0
       -1.9883053 -6.819988 -9.32837 -5.2026887
0001d0 09 5c 8c 3f fe 1e 75 c0 d4 d6 4b bf 7d f5 1d 3f
       1.0965587 -3.8300166 -0.79624677 0.6170271
0001e0 6b ce 07 c0 7f c6 47 40 88 00 31 41 6f 47 ed 3f
       -2.1219738 3.1214902 11.06263 1.8537425
0001f0 f7 bf c1 40 a6 80 a1 bf c6 b9 3b 3c ff 51 d5 be
       6.054683 -1.2617385 0.011457866 -0.4166412
000200 00 d5 59 c0 62 6d d5 bf 04 7b a4 3f 7e e5 c3 3f
       -3.4036255 -1.6674006 1.2850041 1.530441
000210 af 31 4c be d2 3b 57 3e cc 08 d8 c0 9e 48 b2 c0
       -0.19940828 0.21018913 -6.751074 -5.5713644
000220 4e 42 b0 40 ee 0a ac 40 eb eb 27 40 b7 29 1d 3f
       5.508094 5.376334 2.6237743 0.61391777
000230 79 68 98 3e 1f b8 a1 3e 70 ce b9 3f 84 ef 29 40
       0.29767206 0.31585786 1.4516125 2.6552439
000240 bc 23 21 40 20 a9 10 40 72 70 86 3f e9 6a 93 bf
       2.517806 2.2603226 1.0503066 -1.1517001
000250 19 a8 5a c0 80 48 b0 bf e9 0a 41 c0 f5 90 d2 3d
       -3.4165099 -1.3772125 -3.016291 0.102815546
000260 11 dd 93 bf 07 d8 9d bd 48 6d a5 3f 65 b1 ea bf
       -1.1551839 -0.077072196 1.2923975 -1.8335387
000270 f0 aa f6 40 f3 3a d0 3f 17 ad b6 be e3 b8 85 40
       7.7083664 1.626799 -0.35678932 4.178819
000280 3c 38 1a c0 ba c6 19 40 eb 87 c1 c0 66 30 72 c0
       -2.4096823 2.4027543 -6.0478415 -3.784204
000290 a7 ae 36 c1 92 2f 80 40 1e 58 5b c0 87 bd 46 bf
       -11.41764 4.005807 -3.4272532 -0.77632946
0002a0 2d a3 81 3f 2f de 98 bf ea 3a 8b bf 34 86 00 3f
       1.0127922 -1.1942805 -1.0877354 0.5020478
0002b0 c7 c5 03 c0 d4 86 85 3f 8a cd b9 3f 18 f8 03 c0
       -2.0589464 1.0431771 1.451585 -2.0620174
0002c0 14 05 1f 40 75 e1 94 40 ea d2 03 c0 cd 55 e3 c0
       2.484685 4.6525216 -2.0597482 -7.1042237
0002d0 e7 0b 00 be cc b6 ef 40 e4 35 1d c0 70 80 3e c0
       -0.1250454 7.491064 -2.4564142 -2.9765892
0002e0 36 cd c1 3e 98 53 0f 40 dc ce 4c bf c3 97 ca bf
       0.37851876 2.2394772 -0.8000314 -1.5827564
0002f0 6f 46 9d bf 1d 9c 94 3f e0 82 bb 40 9d 10 c1 40
       -1.228712 1.1610142 5.859726 6.033278
000300 ae eb 82 40 08 46 cd c0 8c 4e a6 c0 f1 a6 ec c0
       4.0912695 -6.4147987 -5.1970882 -7.3953786
