checkpoints/1500epoch_0.75stepsize/checkpoints/last-epoch1499.ckpt (torch, 58075 bytes, 87 tensors)

model.revin.gamma f4 [1, 1, 6]
00000000: be35 3a3e b6d0 5b3f 4aa3 a13f d7b3 fe3e
00000010: 0d1c 6c3f 6819 d43f
0.18184564 0.8586534 1.2627957 0.49746582 0.922303 1.6570253

model.revin.beta f4 [1, 1, 6]
00000000: 9227 c1be 3767 c13f 5dfd 40bf a735 9fbe
00000010: d3da f83f 55d4 c6be
-0.37725502 1.5109624 -0.753866 -0.3109562 1.944178 -0.3883387

model.attention.temporal_attention.q_proj.weight f4 [6, 6]
00000000: 3803 bd3e 0cae 9f3e 72f1 7bbd 8aaa db3d
00000010: 4053 783d 34e5 0ebf 87b1 f03d db49 a0be
00000020: 0dc0 24be 0bb7 8e3e c52a 003e 6682 5fbe
00000030: 9e7d a03d 5858 5a3e e61e 73bc a10e a23e
00000040: 2521 673d 9423 f7bc 7630 a639 398b c13c
00000050: d589 8abe 3857 bcbe 0c3e c4be 03fd 203d
00000060: 5774 2e3e e0fb 20bf 8704 ed3e fce6 f9bd
00000070: af3d a1be 75fd 90be ee45 4f3e a5be 593e
00000080: 97d9 c8be eb3f 033f 028c af3e b030 a83e
0.36916518 0.31187475 -0.061509557 0.10725887 0.06062627 -0.55818486 0.11752611 -0.31306347
-0.16088887 0.27874026 0.12516315 -0.21827087 0.078364596 0.21322763 -0.01483891 0.31651786
0.056428093 -0.030168332 0.00031698094 0.023625957 -0.27058282 -0.36785293 -0.38328588 0.03930379
0.17036568 -0.6288433 0.46292517 -0.1220226 -0.31492373 -0.28318372 0.2024152 0.21264131
-0.39228508 0.51269406 0.34286505 0.32849646

model.attention.temporal_attention.q_proj.bias f4 [6]
00000000: e8f6 afbe 26ec 0bbf 78cc 343f 50d3 19bf
00000010: de5d 31bf ceae 2d3f
-0.34368062 -0.5465721 0.70624495 -0.6008806 -0.69283855 0.67844856

model.attention.temporal_attention.k_proj.weight f4 [6, 6]
00000000: 2515 fe3e 734e ec3d ead5 83bd db4e 033f
00000010: 3f2f 2fbe 3d7b f8be 8956 d93e ff35 bdbe
00000020: f18c 7abd ab65 523f 6389 003e 408c 1abf
00000030: db4b 263f dc08 043d c356 ecbd a494 7e3f
00000040: 3e3e 143d c3b4 4fbf 2bd5 62bd 870d c63d
00000050: 7d13 0e3f 6e70 8c3f 3ff8 19bc c698 6abe
00000060: 76a8 c0be 4661 973e 669c c93e eb2a 583f
00000070: 1f48 85be 11bb 24bf 479e 643e c4f4 853e
00000080: dccb 2c3f 3d65 703f f2bf f3bd cd6c 8cbe
0.49625507 0.115384005 -0.06437285 0.512922 -0.17107867 -0.48531523 0.42448834 -0.36955258
-0.06116957 0.82186383 0.12552409 -0.60370255 0.64959496 0.03223501 -0.11539986 0.9944556
0.03619217 -0.81135195 -0.055379074 0.09670549 0.55498487 1.0971811 -0.009397565 -0.22909841
-0.37628525 0.295664 0.39377135 0.8444049 -0.26031587 -0.6434794 0.22326003 0.26163304
0.67498565 0.9390448 -0.11901845 -0.27426758

model.attention.temporal_attention.k_proj.bias f4 [6]
00000000: 33d3 5bbf 61a9 72bf e1e7 41bf 7c41 7cbf
00000010: 02e3 4cbf 979f 50bf
-0.8586914 -0.947897 -0.75744444 -0.9853742 -0.80033886 -0.81493515

model.attention.temporal_attention.v_proj.weight f4 [6, 6]
00000000: dc07 0dbe 2f96 74bf 7cc5 403f 0131 d1bf
00000010: 534f 85bf 979b a13f 6cc5 97be 1051 8cbf
00000020: 4fc9 543f a3a6 e3bf 65f9 83bf cdf4 a83f
00000030: b89c a63e 109b 863f 054b 54bf 5af7 e73f
00000040: 43c6 843f 1e9f aabf 9186 8b3f 5a11 93bf
00000050: 01cd b4bd 21df 8abf 2fe9 87bf f518 713f
00000060: 651a 8ebf dcec 8e3f f16f 243e 8483 8a3f
00000070: 551c 8d3f c860 72bf e97c 8f3f eaf7 92bf
00000080: 38ba 19be d51f 88bf 18ff 88bf e898 813f
-0.1377253 -0.9554166 0.7530134 -1.634308 -1.0414833 1.2625607 -0.29642808 -1.0962238
0.8311967 -1.7785228 -1.0310484 1.3199707 0.32541442 1.0516071 -0.8292697 1.8122361
1.0373005 -1.3329809 1.0900441 -1.148967 -0.08828164 -1.0849344 -1.0618037 0.94178706
-1.1101805 1.1166034 0.16058327 1.0821385 1.1024271 -0.94678926 1.1209995 -1.1481907
-0.15012443 -1.0634714 -1.0702848 1.0124788

model.attention.temporal_attention.v_proj.bias f4 [6]
00000000: 73d2 73bf 177e 87bf f5ec 853f 41a8 73bf
00000010: c87c 793f 9018 74bf
-0.95242995 -1.0585355 1.0462939 -0.9517861 0.97456026 -0.9534998

model.attention.temporal_attention.out_proj.weight f4 [6, 6]
00000000: b691 9d3f 0fac 993f 4731 98bf cea6 8a3f
00000010: 1140 8abf d485 873f 5589 50be a4ef 8fbe
00000020: 01dd 5f3e 721d 91be bb5b 9a3e 3ad0 99be
00000030: 9c42 97be 9118 bcbe caf3 913e 0976 99be
00000040: 5da0 ac3e f393 c0be 80ba eebd bdbf 41be
00000050: 147b 743e ff47 e5be e349 f13e 9baa ecbe
00000060: 9c4e 13be c694 8fbe 9b76 943e 18f1 b5be
00000070: 3724 cf3e 611f cfbe 48fe 81be d6cf 93be
00000080: cad4 893e fb09 23bf c97a 303f de79 3bbf
1.2310092 1.2005633 -1.1890038 1.0832155 -1.0800802 1.0587716 -0.20364888 -0.2811252
0.2186165 -0.28342777 0.3014811 -0.30041677 -0.29543006 -0.36737493 0.2850631 -0.29972866
0.33716097 -0.37612876 -0.11656666 -0.18920799 0.23875076 -0.4478149 0.47126684 -0.46223912
-0.14385456 -0.28043193 0.2899674 -0.35535502 0.40457317 -0.40453628 -0.25389314 -0.28869504
0.26920158 -0.63687104 0.68937355 -0.7323283

model.attention.temporal_attention.out_proj.bias f4 [6]
00000000: 9ad8 10bf 53b1 383e aceb 763e b9c4 253e
00000010: 3277 363e fd2e 16bd
-0.5658051 0.18036394 0.24113339 0.16188325 0.17818907 -0.036665905

model.attention.feature_attention.q_proj.weight f4 [14, 14]
00000000: 3b4e dd3c 56f0 043e 498e 9dbe 79b0 e1be
00000010: a895 143c feba 35be 935d 61be 9ae3 abbe
00000020: 6424 f63c 9e8b 873c 9f2c c9be d6ce 28be
00000030: 60de 1a3f 3de2 b83f a5eb 02bf bdb0 903e
00000040: 49ba 0bbf 3c92 4abe 4704 3fbd c510 ce3e
00000050: 6b75 3b3f 6ea2 453e a5c0 203d e5fe afbd
00000060: e815 1cbf c541 763e 500d 6c3d 5b94 77bf
00000070: 3aab 1c3f 5814 aa3d b952 193e a02f 633e
00000080: 149c 313e 8ce1 8d3e 7ac3 e1bd f5b2 bfbe
00000090: cbc4 bf3d b86e 03bf e320 74bf a922 f1bd
000000a0: 4b26 3abf b1dd 4fbe 798a afbc 01ea 233e
000000b0: b92f 97bd 7117 3b3f 6229 a13d 229c 11be
000000c0: 8716 ad3e 92fc 06be 8d80 e03d d710 75be
000000d0: bf3c 21be 31f6 903e 4930 11bf 79c5 06bf
000000e0: ece3 95be 34f9 8f3e d8e1 d73e e664 dfbd
000000f0: 5bb2 d93e 3797 2abe 81aa 083f 18b3 88be
00000100: 3cb6 85bc 801f 85be 8773 f2be 915e 3abe
00000110: e6f0 11bf 8888 c0be 7d6a 323f 540e 9dbd
00000120: a4a5 6b3e fbfe f43e de4c 7b3d 6dff 2c3e
00000130: 3b39 393f e2d0 6dbe d3cb 2ebe 9c44 2a3e
00000140: a35d 00bf 662f 5b3e b0fb 043e f27c 74bf
00000150: 2a2b c1be 7dfd 473f 4286 f13e b4e4 453f
00000160: 9e4b 2e3f 8491 aa3e 2e6c 983c 142c 21bf
00000170: c229 b9bd 1083 1ebf 18b4 96be 647b 66be
00000180: 06a9 07bd 518d 5ebd e391 8d3f 2b9a ed3e
00000190: ff84 273e b75e 7f3e 192f 79bf ac29 cebe
000001a0: 294e 513f 4197 2cbf ec07 053f 9958 d73e
000001b0: f452 5cbf c247 31bf 6940 d0ba 4ae6 adbf
000001c0: 3efa 793e ff09 023f 6d35 e03d ca20 73be
000001d0: 6af2 1cbe 03f1 a2bf b9f2 323e 32a3 1ebe
000001e0: 52df b53e 16d0 c1bd 594a 4ebc 83eb a1be
000001f0: 30a0 83be dd44 23bf 8010 cfbd c0c4 c8bd
00000200: d0a8 013c fb94 8b3e 9cd2 a6bc 597a 9d3d
00000210: e05d c13e 967f eebe bfc6 9e3e fd06 4bbe
00000220: 21fe 2bbd 8019 1cbd 8f77 9a3e 5fcc 23be
00000230: 897f 2dbe c689 b7be e40b 2cbd 2f3b a5bd
00000240: b993 3e3e 655d 9d3e 2c7c 8fbd 0fa0 c3be
00000250: feb9 d13e 6cb4 66be 3f6f b3be 09af 423d
00000260: b475 f83e 7e1d 5f3f b8c8 283e 1ce6 97be
00000270: 1ed4 10be ab46 3a3e 3908 283f 3bd7 d2bd
00000280: eaed 17be e9aa 5dbe 4a81 f9be 56f7 08be
00000290: 02d6 8fbe 7fa4 27be 37c2 a03d 1fca 283f
000002a0: 5b64 fbbe 1fe4 8fbe 9cd0 493d cbb8 ddbe
000002b0: 8048 373e e112 733f 3b9b 253f d754 763e
000002c0: c0c9 843e bea6 f9bd 6e0c aa3d dbf9 95be
000002d0: 1e29 98be f6ac 1dbf 4b71 c03d 370a 543c
000002e0: e1c8 9abe 86c6 e73e c3f4 623f 4457 8a3d
000002f0: ecd5 203f ebc7 28be 2bf9 3fbd 1e5b abbe
00000300: 5051 223e e3d6 08bf 11bb 44be ede8 f43d
0.027014842 0.12982306 -0.30772617 -0.4407995 0.009068884 -0.17747113 -0.22008352 -0.33572084
0.03004665 0.016546067 -0.39291856 -0.16485152 0.6049557 1.4444042 -0.51140815 0.2825984
-0.54581124 -0.19782346 -0.04663494 0.4024717 0.7322604 0.19300243 0.03924622 -0.08593539
-0.60970926 0.24048527 0.057629883 -0.9671075 0.6119877 0.083046615 0.14972962 0.22186136
0.17344695 0.2771114 -0.11023612 -0.3744122 0.09363707 -0.5134082 -0.9536268 -0.11774189
-0.7271468 -0.20299412 -0.021428334 0.16007234 -0.07382149 0.73082644 0.07869221 -0.14219716
0.3380625 -0.13182285 0.10962019 -0.23932205 -0.15745829 0.2831283 -0.567143 -0.5264507
-0.29275453 0.28119814 0.42164493 -0.10907917 0.42518887 -0.16659246 0.5338517 -0.26699138
-0.016322248 -0.26000595 -0.47353765 -0.18200137 -0.57008207 -0.37604165 0.6969374 -0.076687485
0.23012406 0.47850785 0.061352603 0.16894312 0.7235295 -0.23224214 -0.1706994 0.16627735
-0.5014288 0.214048 0.12986636 -0.9550315 -0.37728244 0.7812117 0.47172743 0.773021
0.6808413 0.33314145 0.018606272 -0.6295788 -0.09041168 -0.61918736 -0.29434276 -0.22508007
-0.033120178 -0.05433399 1.1060146 0.46406683 0.16359328 0.24938475 -0.9733749 -0.40266168
0.8175989 -0.67418295 0.5196521 0.42059782 -0.86064076 -0.6925012 -0.0015888336 -1.3585904
0.24411866 0.507965 0.1094769 -0.23742977 -0.15326849 -1.2729801 0.17475404 -0.15491942
0.35521942 -0.09463517 -0.012590968 -0.31624994 -0.2570815 -0.6377695 -0.10110569 -0.09803152
0.007913783 0.272621 -0.020364098 0.076893516 0.37766933 -0.46581715 0.31011006 -0.19826885
-0.041990403 -0.038110256 0.3016934 -0.1599593 -0.16943182 -0.358473 -0.042003527 -0.08067929
0.18611039 0.30735317 -0.07006106 -0.38208053 0.40962213 -0.22529763 -0.35045812 0.047530208
0.485273 0.87154377 0.16482818 -0.29667747 -0.14143416 0.1819102 0.65637547 -0.10294958
-0.14836851 -0.21647228 -0.48731452 -0.13375601 -0.28092963 -0.16371344 0.078495435 0.6593341
-0.49100003 -0.2810373 0.04927121 -0.43305048 0.1789875 0.9495068 0.6468999 0.24055801
0.25935173 -0.12190007 0.08303152 -0.29292187 -0.2971887 -0.6159204 0.09396609 0.0129418885
-0.30231383 0.4526865 0.88654727 0.06754926 0.6282642 -0.16482513 -0.046868484 -0.33467954
0.15851331 -0.5345289 -0.19211985 0.119584896

model.attention.feature_attention.q_proj.bias f4 [14]
00000000: d159 64bd b92e 43be f4bf 57bd b817 2bbe
00000010: faec dbbe a22b 0bbf 78cc adbe 8f1e 4bbf
00000020: 5b0e 2dbe de25 f2be debd 103d bf51 503d
00000030: ac97 02be 5b26 dbbe
-0.055749718 -0.19060792 -0.052673295 -0.16708267 -0.42954236 -0.54363453 -0.3394506 -0.79343504
-0.16900007 -0.47294515 0.03533732 0.05085921 -0.1275317 -0.428027

model.attention.feature_attention.k_proj.weight f4 [14, 14]
00000000: 1c5f 0cbf bc22 c3bd 7ebf bebe 5e0b dabe
00000010: ff14 e0be b026 9abd 6ebc d73f 54fa 15c0
00000020: 97ed 983d 43e9 8b3e 8f23 103f 70cf 613f
00000030: c0b8 3c3f d199 a73e 27d8 07bf a460 a9be
00000040: da33 00be f063 a7be f7b1 aa3d 3f17 0ebd
00000050: cad5 873f 7c20 c8be 59ea 283f e83b 863e
00000060: ae48 953e 8b5a 10bf 3139 5e3e 9c38 14be
00000070: 39ff 00bf 00e8 8ebe 4f19 a3be 805a 0ebf
00000080: 3c41 9e3d e01b 0b3f 8e1d 193f 7159 2ebe
00000090: 89ac 943d 426f aebe 2cb6 c3bd f772 d73e
000000a0: a624 bd3b 963a 043f ab80 fabe d7a0 08be
000000b0: 8484 75be 3af9 473e f590 413e bfe9 1e3f
000000c0: 4016 303f 4011 bdbe 3b9b 1d3d c265 38be
000000d0: 5e03 50be 2771 5c3e 5334 02bf a845 b13c
000000e0: 32a1 e3bd dcfe 983b 3eb5 11bc b77e 3abd
000000f0: c01d 60be 93cb 1e3e b52e c93e 46cb f8bc
00000100: 9ea1 2f3e e57c 15bd 143b bdbe ac09 923d
00000110: f441 d5be 57c1 4c3c 339c c8be 0fe4 203f
00000120: 4871 30bf 8d31 1b3e 52d3 a23d 7f2f 8b3e
00000130: 5395 173f 0c7c 59be 29dc acbd 6a7b 7b3e
00000140: 2df1 74bd 6ddb 70be de9f ba3c 3bbd a3be
00000150: 45f3 85be a1a4 1ebe 979b 14be d748 1abe
00000160: 7f6c 343e eadc 2bbd dce1 d13e 0853 92bd
00000170: 6b01 533f b485 ca3e 58d3 4abe 4aa4 1b3f
00000180: b940 063e 2d87 8f3e 4556 9ebe 683e 303f
00000190: 30d5 08bf 5250 4abe e49e a2be 020f 853f
000001a0: c785 56be 87da 4a3e 9807 15be 5a94 c73e
000001b0: 511c 86bf 6181 71bf 4d90 4c3e 5c40 42bf
000001c0: 760a 0ebf 5f29 4e3d 91a3 c43e a824 d03e
000001d0: 9574 f2be 8c7b 17bd 1e29 e93e a951 90be
000001e0: d867 1dbf 2140 633e 364b 97be 6e45 3dbe
000001f0: 862a 04bd 270e 0f3e 4dab 033f e5dc f3bd
00000200: cc2c 1e3c 06b9 fcbe c22f 0abf baf1 fdbc
00000210: bf93 773e 7ad9 25be 5fff 163e 4288 25be
00000220: cce9 3d3e 8099 cc3c 89d8 24be 4f96 a53e
00000230: 8552 05bf c62c eabe f2cd bebe 63cf 3ebe
00000240: 8585 40be 2927 963e 0e43 9d3f a0fb d5bf
00000250: f59d 873e 6669 1a3f 579e b13e 3426 b53e
00000260: bbe0 3d3e 4afd a13d 1778 27bf 6ed8 b7be
00000270: 50fc c5be 19b6 4fbe 7ad0 9c3e b12d 863e
00000280: a6c9 703f f281 9dbf 6675 3a3f 81ef d33d
00000290: 37ac c53c 9243 76bd 3ce9 383e 77af b63e
000002a0: 268e c9bc faeb 50be 36d0 c63e 04ea 503f
000002b0: 285d 99be 4811 9dbd 7cf6 2a3f ba57 55bd
000002c0: c36d 0e3c a1f2 2dbf d42d b6bd 450c 8a3e
000002d0: 4b1c b53e 62c3 4d3e 8674 103f 87f2 89be
000002e0: 44c3 09bd fc3b 053f 1f35 c4be dcc2 413e
000002f0: 9b38 713e c497 2b3e 65ed 523e 1069 f5bd
00000300: 0ce0 7b3e 0c5a 05be ca4e 62bf 2c34 433e
-0.54832625 -0.095281094 -0.37255472 -0.42586797 -0.4376602 -0.0752691 1.6854379 -2.3434038
0.07467192 0.27326402 0.5630426 0.8820715 0.73719406 0.3273454 -0.530642 -0.33081543
-0.1251978 -0.32693434 0.08334725 -0.034690138 1.0612118 -0.39087284 0.65982586 0.2621758
0.29157013 -0.5638816 0.21701504 -0.1447472 -0.5038944 -0.27911377 -0.31855246 -0.5560684
0.07727286 0.5433941 0.5981072 -0.17026307 0.07259471 -0.34069258 -0.09556231 0.420799
0.005772191 0.51651895 -0.4892629 -0.13342606 -0.23976332 0.19528666 0.18902953 0.6207542
0.6878395 -0.36927223 0.038478117 -0.18007568 -0.20313784 0.21527539 -0.5086109 0.02163966
-0.1111473 0.0046690535 -0.008893309 -0.045531 -0.21886349 0.15507345 0.39293447 -0.030370366
0.17151496 -0.03649606 -0.36959136 0.07130751 -0.4165188 0.012497268 -0.3918167 0.6284799
-0.68922853 0.15155621 0.079504624 0.27184674 0.59212226 -0.21238726 -0.0844043 0.24558797
-0.059800316 -0.23521204 0.022781309 -0.3198031 -0.26162162 -0.15492488 -0.14512478 -0.15066849
0.17619513 -0.041958727 0.4099263 -0.07144743 0.8242404 0.39555132 -0.19807184 0.6079756
0.13110627 0.28032818 -0.30925193 0.68845224 -0.534503 -0.19757202 -0.3176185 1.0395205
-0.2094947 0.19809924 -0.14553678 0.3898037 -1.0477391 -0.9433804 0.19976921 -0.75879455
-0.5548471 0.050332423 0.3840604 0.40652966 -0.4735457 -0.036983058 0.45539182 -0.28187302
-0.6148658 0.22192432 -0.2954957 -0.18483517 -0.032267116 0.13970242 0.5143326 -0.11907367
0.009654235 -0.49359912 -0.5397912 -0.030999053 0.24177454 -0.16196242 0.14745854 -0.1616526
0.18546218 0.024975538 -0.16098227 0.3234124 -0.5207904 -0.45737284 -0.372665 -0.18633799
-0.18800934 0.29326752 1.2286088 -1.6717415 0.264877 0.60317075 0.34691116 0.3538071
0.18542759 0.07909639 -0.6541762 -0.3590731 -0.38669062 -0.20284308 0.30627805 0.26206735
0.9405769 -1.2305281 0.72835386 0.10348416 0.02412997 -0.060123034 0.18057722 0.35680744
-0.024603914 -0.20402518 0.38830727 0.8160708 -0.29953885 -0.07669312 0.66782355 -0.052085616
0.008693161 -0.6794835 -0.0889546 0.26962486 0.35373148 0.20094064 0.564278 -0.26942846
-0.033633485 0.52044654 -0.38321778 0.18921989 0.2355675 0.16757113 0.20598371 -0.1198293
0.24597186 -0.13022631 -0.8840147 0.1906287

model.attention.feature_attention.k_proj.bias f4 [14]
00000000: a9b2 3bc0 9ea6 59bf 15f8 68bf 9816 35bf
00000010: 7021 c1be 6fcd 0dbf 3c5e 0fbf 1ac7 063e
00000020: 6a2e 0cbf e3c3 cebe 22a6 12c0 9dc8 ecbf
00000030: 0638 03bf c829 61be
-2.9327796 -0.8501986 -0.91003543 -0.707376 -0.37720823 -0.5539159 -0.56003165 0.13161889
-0.5475832 -0.40383825 -2.29139 -1.8498722 -0.5125736 -0.21988595

model.attention.feature_attention.v_proj.weight f4 [14, 14]
00000000: 4bee ec3e df81 623e 0a0e 8e3e 0258 083f
00000010: 2f8d 9b3e a3fb bd3e 542f e63e 0e1b cabe
00000020: f108 0fbe 9504 c1bd 7e10 45be 93aa c0be
00000030: ce05 b2be e8ef 1dbf 86c3 e2be b120 82be
00000040: 5f5d 89be 7b9a 04bf 814c cfbe ce25 e1be
00000050: 5baa e5be fc5d e13e 995d d13d f7ee 063e
00000060: 20ce 753e 6c4d db3e 9898 e63e 4a97 233f
00000070: ab47 fdbe 7504 8ebe 60a9 a1be fb9c f5be
00000080: 2602 87be bcbb c3be d2a7 03bf de39 023f
00000090: d4ea b03d 1f81 cf3d 7fb9 493e 4c6b d63e
000000a0: 8058 ea3e ced7 313f cd34 f6be 89f0 73be
000000b0: 60ab 8dbe 5ca0 dabe 7027 93be 5206 b1be
000000c0: 9080 c5be 7bbf c63e ac7c 523d 745a c93d
000000d0: cc11 263e 1e7c 933e 23f7 bc3e ef18 203f
000000e0: 9736 00bf 817b 78be d366 8bbe eb06 01bf
000000f0: c6f8 6bbe 4216 c6be 35f7 edbe 8ccd c83e
00000100: d7a4 cc3c 9b2d 8b3d dcc7 553e 2fe2 983e
00000110: d4fb a43e 5858 313f 46ac 303f c230 583e
00000120: 670e 913e 24b0 d33e 5a98 603d b19f 1d3e
00000130: 5c7c ed3e aaba e9be d2b3 ab3d 856b 6f3c
00000140: 0ac9 40bd 1085 38be 6cba 65be 31b2 56bf
00000150: 1bba 213f edd5 3b3e 5c4b 513e 31de b93e
00000160: 6dea c0bc fcd5 f43d 9b73 cb3e 1cfc d3be
00000170: 4a47 b13d 5d15 ddbc f3ce 063d 0d91 fabd
00000180: b5c9 e0bd 368f 47bf 39f0 163e a3b0 123f
00000190: f1cd c03e f6c2 013f 1fee 2a3f 6dbb 163e
000001a0: 6d58 bf3e 8f1f e9be 33ae 29bf 4dff 99be
000001b0: 859c c8be efdf fbbe 6c65 88be 2aef a83c
000001c0: fa0a 1a3f b8e8 8e3e 967b 993e b705 a43e
000001d0: 2c70 ccbc fbd7 31bc 6886 b63e 9c77 dfbe
000001e0: dcdd 57be 1523 2abe a395 dbbd 903b c0bd
000001f0: e8a9 6fbe 1a19 d4be edef 733e b250 ea3e
00000200: 4b9f b23e 0381 043f 32be 053f 8bd2 2bbd
00000210: 8285 9d3e 3e0c e4be 178c fcbe c598 dfbd
00000220: 7cf6 5ebe 84da a2be 05b6 71be 5dad b1bd
00000230: 89b8 8fbe e630 cfbe 0a5f 9cbe e134 09bf
00000240: c1c8 d7be 3707 063e bcda 9fbe abe5 e63e
00000250: fe9d cc3e 8320 f53c e40f ba3d b777 bd3e
00000260: ff7d 413e fb56 963e 35e5 2ebf cc3c 45be
00000270: 392b 9abe e003 b0be 2896 0b3d fd3b 753d
00000280: 6bb7 c9be b9d2 ca3e 694a 4c3e c6af b23d
00000290: 836b 8f3d d810 ef3d 3c40 613e 230a ff3e
000002a0: f75a 3bbf 85f2 80be 08ed 93be 1122 8cbe
000002b0: fa4f 1e3e 7c93 d43d e337 bfbe 6911 dc3e
000002c0: fbf5 fe3d 19ec fa3d 4528 9e3c c6de eb3d
000002d0: bbd0 293e 638e 053f 359f efbe b5b9 99be
000002e0: ea76 aebe 0835 e2be 6dca 9dbd 4bb4 7f3c
000002f0: 940f c0be 6352 d73e 5985 5f3e ce8a 0c3e
00000300: 10b9 d13d 7ea0 113e 6058 1e3e 4fc6 b73e
0.46275553 0.22119854 0.27745086 0.5325929 0.30381152 0.37106046 0.44957983 -0.39473766
-0.13968255 -0.09424702 -0.19244573 -0.37630138 -0.34770054 -0.6169419 -0.44289798 -0.25415567
-0.2682905 -0.5179822 -0.40488055 -0.43974155 -0.44856533 0.44017017 0.102229305 0.13177095
0.24004412 0.42832506 0.45038295 0.63902724 -0.4946874 -0.27737775 -0.31574535 -0.4797133
-0.26368827 -0.38229167 -0.5142795 0.5086955 0.0863854 0.1013205 0.19699667 0.41878736
0.45770645 0.69469917 -0.4808716 -0.23822226 -0.2766981 -0.4270047 -0.28741026 -0.34575135
-0.38574648 0.38817963 0.051388428 0.09831706 0.16217726 0.2880563 0.369073 0.62538046
-0.500833 -0.24265863 -0.27226886 -0.5040118 -0.23044118 -0.38688856 -0.46477666 0.3921932
0.024980946 0.06795808 0.20877022 0.29860064 0.3222338 0.69275427 0.6901287 0.2111235
0.283313 0.41345322 0.054832794 0.15392949 0.4638394 -0.45650226 0.083839074 0.014613037
-0.047066726 -0.1801951 -0.22434396 -0.8386565 0.631746 0.18343325 0.20438904 0.3630233
-0.023549283 0.11954877 0.39736637 -0.41403282 0.086561754 -0.026987726 0.032912206 -0.122346975
-0.109759726 -0.779529 0.14740075 0.57300776 0.3765712 0.5068811 0.66769594 0.14719935
0.3737215 -0.4553189 -0.6628143 -0.30077592 -0.39181915 -0.49194285 -0.2663988 0.020621855
0.60173 0.27911925 0.299771 0.3203561 -0.024955831 -0.010854716 0.3564942 -0.43645942
-0.21080726 -0.16614945 -0.107219 -0.09386361 -0.23404658 -0.414254 0.23821993 0.4576469
0.34887156 0.51759356 0.5224334 -0.041948836 0.3076592 -0.4454059 -0.4932563 -0.1091781
-0.21773714 -0.3180734 -0.23604591 -0.086756445 -0.28070477 -0.40466994 -0.3054126 -0.5359631
-0.4214535 0.1308869 -0.3122157 0.45097098 0.39964288 0.02992273 0.09085062 0.37005398
0.1889572 0.29363236 -0.6831849 -0.19261473 -0.301111 -0.34377956 0.034078747 0.059871662
-0.3939775 0.39613894 0.1995026 0.087249324 0.07002928 0.116731346 0.2199716 0.4981242
-0.73185676 -0.25185028 -0.28891778 -0.2736974 0.15460196 0.10379693 -0.37347326 0.42982033
0.12449261 0.12252063 0.019306311 0.115171 0.1658353 0.5217039 -0.46801153 -0.30024496
-0.340751 -0.44181085 -0.07704625 0.01560695 -0.37511885 0.42055044 0.21828212 0.13724825
0.10240376 0.14221379 0.154634 0.35893485

model.attention.feature_attention.v_proj.bias f4 [14]
00000000: cd2a efbe 99cf f83e c736 063f fb21 e23e
00000010: f91b f83e aecf f8be 9985 cfbe ee2c efbe
00000020: 5cb6 dbbe 0e63 d9be 0307 e53e 5e68 de3e
00000030: 55c8 de3e d035 d53e
-0.46712342 0.48595884 0.52427334 0.4416655 0.4845884 -0.48595947 -0.40531614 -0.46713966
-0.42912567 -0.42458385 0.44731912 0.43439 0.43512216 0.41642618

model.attention.feature_attention.out_proj.weight f4 [14, 14]
00000000: 7869 203e b174 24be d725 1dbe b784 22be
00000010: 8a4e 38be 79da 833e f8f5 733e 24b3 8bbd
00000020: 5e6a 0d3e 28d0 59bc c28f acbb 1ea2 18be
00000030: 48fa 5ebe 3497 c4bd e6f4 ce3e 8307 e0be
00000040: fee2 d5be 307d dfbe 68cd d5be ef75 d23e
00000050: 806c d53e fc03 cd3e 93f0 da3e 64d2 be3e
00000060: c2a9 c4be 78b5 bbbe ce29 cfbe d4e7 aebe
00000070: 426f cd3e 56a3 05bf 8d85 d9be 9999 ebbe
00000080: a7d4 ddbe 833a 973e e56c 513e ea8e 233f
00000090: 12db 9d3e 6565 fe3e 8fb4 e7be b63e 8dbe
000000a0: b023 80be 1757 a6be 02e7 043f e310 08bf
000000b0: 8c3a 0bbf ef12 02bf dcf4 debe 1ab1 d33e
000000c0: 0397 913e 5a09 203f 64c8 a23e e562 023f
000000d0: 2e56 06bf ae78 89be 7b4d 93be ae14 babe
000000e0: 2d42 d93e bb4d efbe 7aa0 c4be 8cc7 ccbe
000000f0: 43de b6be f35f 883e 20a4 773e eb14 0e3f
00000100: ea81 8f3e 71a7 d73e 728a c9be 1af3 8cbe
00000110: 6700 40be 905a a2be d79f 0f3f 5d16 18bf
00000120: 3370 19bf 6c7d 0dbf 0256 1abf 5e65 223f
00000130: 359c 133f 5865 eb3e ebd6 0c3f fd9e ec3e
00000140: 57ed 06bf d313 0cbf 9954 11bf aaca 04bf
00000150: 9258 1f3f 991b 22bf 5a8e 15bf c680 22bf
00000160: fdc8 25bf e92a 043f 095d ec3e f082 203f
00000170: 2bcf e73e bcb7 093f 8a62 0ebf 2298 d0be
00000180: c4dc e4be ed89 01bf 7ac8 113f b71b 23bf
00000190: 1be8 10bf 41ee 18bf ff69 19bf 83f2 333f
000001a0: fca1 203f ea61 ec3e af0f 163f 57d6 fd3e
000001b0: 94d2 0fbf 9c3b 1fbf b184 17bf dced 01bf
000001c0: d626 1d3d 319d 313d 6af9 92bd cee0 3abc
000001d0: d75f 01bc 2285 dd3c eb0d ab3d fae4 5d3d
000001e0: a987 043e 7fb9 133e ada6 96bd 8674 08be
000001f0: afab e8bd d95f cbbd 5236 d2be 29a3 bd3e
00000200: dc1f d43e 96d1 ea3e 5145 b83e 1bee f7be
00000210: 3a3d debe c2da 50be a041 d9be ea1a 6dbe
00000220: 37c6 bd3e f725 f53e 191d 033f 1885 aa3e
00000230: c9d2 b43e 162e c7be 0ccf b6be 4c84 b8be
00000240: 5309 babe ebd4 bc3e 38a1 b43e 2d1c 7c3e
00000250: ad8c 873e f2d5 6d3e 01cb 75be f991 76be
00000260: 1380 8fbe 866e 90be 1515 3dbe 257f 833e
00000270: f456 333e c7d3 483e 5559 553e af20 d7bd
00000280: 4109 ec3c d873 dcbe 403e 32be 5221 8ebe
00000290: 6806 b23e 0ace fa3d 0751 023e a2a4 033e
000002a0: b38d a03e 1d1c bfbe 1518 b1be 9941 97be
000002b0: 2f04 b1be 177a 523e f461 213e 5cdd 013f
000002c0: 4ddc 7f3e f426 cc3e e27e b8be 3d31 16be
000002d0: 095f 4abe a4ca 53be 8835 7abe 13fe 8e3e
000002e0: 5955 6b3e b0b0 853e cb98 8b3e b18b 92be
000002f0: 4e5c a4be 5822 cdbe 08b6 c2be cfc6 99be
00000300: a154 bb3e 4cb2 bd3e 6496 d33e 8acf aa3e
0.15665233 -0.16060139 -0.15346466 -0.15870939 -0.1799871 0.2575262 0.23824298 -0.06821278
0.13810107 -0.013294257 -0.0052661607 -0.14905593 -0.21775162 -0.09599152 0.40421218 -0.4375573
-0.41774744 -0.43650198 -0.41758275 0.411056 0.4168434 0.40042102 0.4276167 0.3726989
-0.38410765 -0.36661887 -0.40461582 -0.34161246 0.40123945 -0.52202356 -0.42484704 -0.46015623
-0.43326303 0.29536828 0.20451696 0.63889945 0.308312 0.49686733 -0.45254943 -0.27586907
-0.25027227 -0.3248832 0.5191499 -0.5315077 -0.5438621 -0.5081014 -0.43546188 0.41346055
0.28435525 0.6251427 0.3179351 0.5093215 -0.5247525 -0.26849884 -0.2877005 -0.36343902
0.424333 -0.4673899 -0.38403684 -0.39995992 -0.35716447 0.26635703 0.24183702 0.5550067
0.28028804 0.42119935 -0.39363438 -0.27529222 -0.18750153 -0.3170972 0.5610327 -0.59409124
-0.5993683 -0.55269504 -0.6028749 0.63435924 0.5766023 0.45975757 0.5501544 0.46215048
-0.527059 -0.5471775 -0.5676971 -0.5187174 0.6224452 -0.6332336 -0.58420336 -0.6347774
-0.6475981 0.51627976 0.4616473 0.62699795 0.45275244 0.5379598 -0.5561911 -0.40741068
-0.4469968 -0.50601083 0.5694653 -0.63714164 -0.56604165 -0.59738547 -0.5992736 0.7029192
0.6274717 0.46168453 0.5861768 0.4957759 -0.5618069 -0.6220033 -0.59186846 -0.5075357
0.038367115 0.0433628 -0.07176478 -0.011406137 -0.007896385 0.027041022 0.08352264 0.054173447
0.12942375 0.1442623 -0.0735601 -0.133257 -0.11360871 -0.09930391 -0.41057068 0.37038544
0.41430557 0.45863026 0.35990384 -0.48423848 -0.43406087 -0.2039595 -0.4243288 -0.23154798
0.37065288 0.47880527 0.51216274 0.33304667 0.35317066 -0.38902348 -0.3570484 -0.36038435
-0.3633524 0.36881194 0.3527925 0.24620123 0.26474515 0.23226145 -0.24003221 -0.24079122
-0.280274 -0.28209323 -0.18465073 0.2568294 0.17513639 0.19612037 0.20834859 -0.10504281
0.028813006 -0.43057132 -0.17406559 -0.27759796 0.34770513 0.1224633 0.12726222 0.12855771
0.31358108 -0.37326136 -0.34588686 -0.29542235 -0.34573504 0.20554386 0.15760022 0.5072839
0.24986382 0.3987347 -0.36034304 -0.1466722 -0.19762816 -0.2068277 -0.24434483 0.27928218
0.22981776 0.26111364 0.2726501 -0.286222 -0.32101673 -0.40065265 -0.38029504 -0.3003449
0.36588004 0.37050092 0.41325676 0.33361465

model.attention.feature_attention.out_proj.bias f4 [14]
00000000: 9a24 34bd 75da 1dbe 84b7 2bbd b728 d7bd
00000010: 5969 85bd 547d 7ebe dc14 c1be 24aa 2fbe
00000020: c7e3 1ebf aa97 38bc 2ef9 28bd 52df 9bbe
00000030: b05e 32bc e915 69be
-0.04398022 -0.15415366 -0.04192306 -0.105058126 -0.06514234 -0.24852496 -0.37711227 -0.17154747
-0.6206631 -0.011266628 -0.04125326 -0.30443817 -0.010886833 -0.22762264

model.attention.norm1.weight f4 [6]
00000000: 26d7 de3f e727 fe3f ad4e ca3f 0111 4e40
00000010: 1430 0040 7249 1040
1.7409408 1.9855927 1.580526 3.2197878 2.0029345 2.2544827

model.attention.norm1.bias f4 [6]
00000000: b658 8cbf 0a36 993f becd 67be fcd1 923f
00000010: c1b7 a43f 8448 91bf
-1.0964572 1.1969616 -0.22637078 1.1470332 1.2868577 -1.1350255

model.attention.norm2.weight f4 [14]
00000000: 4d55 ff3f e8a4 d43f b2fc ca3f 5cbc ef3f
00000010: ea36 f03f 8e17 fb3f 58f2 8f3c 75c8 c8bd
00000020: 3d69 e53f 58c8 cb3f a766 e93f 9dba de3f
00000030: 2938 d43f 59a1 eb3f
1.9947907 1.6612825 1.5858366 1.8729358 1.8766758 1.9616563 0.017571613 -0.09803859
1.7922741 1.5920515 1.8234452 1.74007 1.6579639 1.8408614

model.attention.norm2.bias f4 [14]
00000000: 7e21 7ebd 9402 c9be f9ec 14be 5850 4cbe
00000010: 519e 28be cf67 14bf 5882 cabf 10c3 ec3f
00000020: 2563 723e dee8 8d3e fe7a cd3e c4ee 2e3e
00000030: 7733 683e 40d8 633e
-0.06204366 -0.3925978 -0.14543523 -0.19952524 -0.16466643 -0.579709 -1.5821028 1.8497028
0.23670633 0.27716726 0.40132898 0.1708327 0.22675882 0.22250462

model.Linear.0.weight f4 [1, 14]
00000000: 71a6 903e 7453 cb3e f6c2 bf3e f13c f33e
00000010: 64ec e43e 44e4 0c3f 21bf 313f 92f9 363f
00000020: f9d3 ef3d a63e e43e a0af c73e 30bf bf3e
00000030: 3204 ad3e fc07 b03e
0.28251985 0.39712107 0.3745343 0.47507432 0.44711602 0.55035806 0.69432265 0.71474564
0.117103525 0.44579047 0.3900118 0.37450552 0.33792263 0.34381092

model.Linear.1.weight f4 [1, 14]
00000000: aeee 00be 6b65 443d bb27 923d 5bd8 c63d
00000010: 9e8a 2a3e b30d 8cba ed6b d93c 53ae 84bc
00000020: 261f 663c 15e1 993d 68bd 883d 79dc f3bc
00000030: 5bbe be3d 110a 2bbb
-0.12591049 0.047948282 0.07136484 0.09709235 0.16654441 -0.0010685235 0.02654072 -0.016196406
0.014045512 0.07513634 0.066767514 -0.029768215 0.09313651 -0.002609853

model.Linear.2.weight f4 [1, 14]
00000000: c864 5ebd 85f6 dc3c aa14 573d 5b74 bf3c
00000010: 302c 7c3d 7371 fb3b 184b c93c 13eb 5cbc
00000020: 0d6d 38bd ebe0 b3bc f1ca 88bc b2f3 213c
00000030: b86c 5bbc a473 a13d
-0.05429533 0.026973018 0.05250994 0.023370912 0.061565578 0.0076734363 0.02457194 -0.01348378
-0.045025874 -0.021957835 -0.016698333 0.009884762 -0.01339262 0.07883385

model.Linear.3.weight f4 [1, 14]
00000000: 7512 40be e93f 76bd 4789 ce3c 4734 913d
00000010: 20c0 743d 799e 89bc 60c9 c83c 87b8 89bd
00000020: 6ef2 51bc 806f 963c 5433 823c f5cb 65bc
00000030: b015 e33b 3eb4 0c3d
-0.18757041 -0.060119543 0.025211943 0.07090049 0.059753537 -0.016799198 0.024510086 -0.06724649
-0.012814147 0.018363714 0.015893616 -0.014025678 0.0069300756 0.03435158

model.Linear.4.weight f4 [1, 14]
00000000: d6e4 eebd e37e 2cbd ef09 5a3c da99 aabd
00000010: a9e9 28bd c877 c6bd ce1d a3bd 80c6 05be
00000020: a2ff cd3c 45b1 b43c 27c0 61be ebef 91bc
00000030: 6b03 93bd 82b8 0a3d
-0.11664741 -0.042113196 0.013308032 -0.08330126 -0.04123846 -0.09690815 -0.07964669 -0.13064003
0.02514631 0.022057185 -0.22045957 -0.017814597 -0.07178386 0.033867367

model.Linear.5.weight f4 [1, 14]
00000000: bd7f dc3e a327 933d 274d 963d b48f 993c
00000010: d864 183e e872 05be 2d76 09be c7a6 19be
00000020: f461 0b3f eeaf 6f3f 2669 5a3e 55c6 4a3f
00000030: e2d1 743e a906 5f3f
0.43066207 0.071852945 0.073389344 0.01874528 0.14882219 -0.13032115 -0.13423987 -0.15005027
0.5444634 0.9362782 0.21329173 0.7920888 0.23908189 0.8711954

model.projector.weight f4 [1, 6]
00000000: 3a33 8c36 2aa3 9d3e 51e3 7e3e 7553 583e
00000010: 5ba9 6a3e 1630 c63f
4.1782887e-06 0.30788547 0.24891402 0.21125586 0.22916166 1.5483425

exp_avg f4 [1, 1, 6]
00000000: 7645 bec3 30d5 a4c3 a8a2 0bc2 c183 9542
00000010: 2743 ed43 a678 8940
-380.54266 -329.66553 -34.908844 74.75733 474.52463 4.2959776

exp_avg_sq f4 [1, 1, 6]
00000000: a5df 344c 015e 0e4a c51c 3f46 ae2a 4648
00000010: 8da4 594a e333 e545
4.7414932e+07 2.3325442e+06 12231.192 202922.72 3.5658592e+06 7334.486

exp_avg f4 [1, 1, 6]
00000000: c965 0241 2a47 4ec1 0748 c1c0 9a5a 0fc2
00000010: b88e 7bc1 1326 4b41
8.14985 -12.892374 -6.0400424 -35.838478 -15.722343 12.696795

exp_avg_sq f4 [1, 1, 6]
00000000: eb6a 0e46 644a 5346 7299 4046 1b78 2a48
00000010: 68d1 ce46 a040 1247
9114.7295 13522.598 12326.361 174560.42 26472.703 37440.625

exp_avg f4 [6, 6]
00000000: aabd 20c0 9a5b c0bf d0a1 2041 2df1 8640
00000010: d9cb a1be a84a 4fc1 febb b0bc cd0a c83f
00000020: cf46 053f 021f f23f df81 073f 76ff 84c0
00000030: db70 bc40 1d3f e3c0 3d10 dbc0 aea4 c6bf
00000040: 0c23 afc0 abc9 8641 2cb3 14c1 0c3a df40
00000050: 5a6e 1d40 2931 f4c0 f315 e940 f6dd 41bf
00000060: d55e 623f cb4b 363f 7803 b2bf 3e4c 4140
00000070: cb89 0440 e3a7 89c0 20ba d13f 6d81 b7bf
00000080: b81a 7c3f 1411 163f df20 4cc0 a0a8 583f
-2.5115762 -1.5027955 10.039505 4.2169404 -0.31600836 -12.955727 -0.021574017 1.5628296
0.5206117 1.8915713 0.5293254 -4.156184 5.8887763 -7.1014543 -6.845732 -1.5519006
-5.473028 16.84847 -9.293743 6.975836 2.4598603 -7.631001 7.2839293 -0.7572931
0.8842595 0.712094 -1.3907309 3.0202785 2.0709102 -4.301744 1.6384926 -1.4336373
0.9847827 0.5861981 -3.1895063 0.846323

exp_avg_sq f4 [6, 6]
00000000: 60b9 a244 c568 1945 cd6e ab45 2b5d 1345
00000010: 537e 2445 522c 8946 949f 8144 f822 0c45
00000020: e366 ee44 2d25 8f44 affd a545 8478 0646
00000030: 625a 0845 59ff a045 e2f0 5144 e598 8b44
00000040: 879b d745 2286 5046 b2dd 3044 7153 8e44
00000050: 8af5 c243 fb20 4344 a290 d743 5ee4 7344
00000060: 3085 4245 1f20 6145 f61c f042 f836 2044
00000070: 8a98 d645 89f8 e145 816b a544 f0d3 c944
00000080: 4eb0 6542 564a e343 0857 0f45 1f9f eb44
1301.793 2454.548 5485.85 2357.823 2631.8953 17558.16 1036.9868 2242.1855
1907.2152 1145.1617 5311.7104 8606.129 2181.649 5151.9185 839.7638 1116.778
6899.441 13345.533 707.464 1138.6075 389.91827 780.5153 431.12994 975.56824
3112.3242 3602.0076 120.056564 640.8589 6867.0674 7231.067 1323.3595 1614.623
57.422173 454.58075 2293.4395 1884.9725

exp_avg f4 [6]
00000000: 131f aebf 82c1 b03e a6e4 51bf f155 0240
00000010: a715 1f3e fcd3 17bf
-1.3603233 0.34522635 -0.81989515 2.0364954 0.15535603 -0.5930784

exp_avg_sq f4 [6]
00000000: 9ccc 1643 5678 4643 13e9 8043 5777 9b42
00000010: 5f4d b443 6de3 1443
150.79926 198.47006 257.8209 77.733086 360.60446 148.88838

exp_avg f4 [6, 6]
00000000: 07e9 d841 dc6b 41c1 2040 93c1 3dd8 bd40
00000010: f9e5 c1c1 c6a8 cd41 7f35 9b40 3b3b b3bf
00000020: 6998 44c0 c69b 1641 fea2 11c1 8257 2b40
00000030: 612c c4c1 d5ef 9b41 01f2 1241 5681 39c1
00000040: 3398 ef41 0b44 cac1 a3e1 6a41 c43d a0c0
00000050: 6f44 d8c1 68f3 ca40 c58c 6241 04b6 de40
00000060: 47e7 d03c 7971 893f ecd5 e3bf 2f2c 8d3f
00000070: 5870 8f3f 4ee5 b7be 3201 94c0 62cf 16c1
00000080: 1ab7 1042 555e 45c1 c637 1dc2 1339 3d41
27.113783 -12.088833 -18.406311 5.9326463 -24.237291 25.707409 4.8502803 -1.4002451
-3.0718024 9.413031 -9.102293 2.677216 -24.52167 19.492105 9.184083 -11.594076
29.949316 -25.283224 14.680087 -5.0075397 -27.033415 6.3422127 14.159368 6.9597187
0.025500907 1.0737754 -1.7799659 1.1029109 1.120616 -0.35917133 -4.625146 -9.425631
36.17881 -12.33553 -39.304466 11.826434

exp_avg_sq f4 [6, 6]
00000000: 80f8 0247 53b7 5c47 9acb d747 8e28 8847
00000010: ff66 8047 cf51 1a48 4e67 1445 f210 c044
00000020: 2e4e dc44 0604 2045 15d9 b245 a419 a045
00000030: d5e6 8047 ad79 1348 fc45 8247 fdd9 8446
00000040: 2dde 7948 edca c346 6fe3 5846 af91 9b46
00000050: d28c c547 c4c0 9845 dfbe 2047 4041 de46
00000060: 0985 d944 2df5 0146 5520 a345 f3a6 e043
00000070: dd33 3b46 1e6a c744 3543 b646 342a 7246
00000080: 9c61 9447 46b1 d345 9f66 d546 6395 5c47
33528.5 56503.324 110487.2 69713.11 65741.99 158023.23 2374.4565 1536.5295
1762.4431 2560.2515 5723.1353 5123.205 65997.664 151014.7 66699.97 17004.994
255864.7 25061.463 13880.858 19912.842 101145.64 4888.0957 41150.87 28448.625
1740.1573 8317.294 5220.0415 449.3043 11980.966 1595.3162 23329.604 15498.551
75971.22 6774.159 27315.31 56469.387

exp_avg f4 [6]
00000000: 11e7 47c0 9d37 69bf 0d54 a540 64ab 3740
00000010: 106d 073f d107 06c1
-3.1234782 -0.91100484 5.16651 2.8698359 0.5290079 -8.376908

exp_avg_sq f4 [6]
00000000: 6274 f545 0acf 7443 920a 7846 3d1c 3745
00000010: 3618 4544 0447 cf44
7854.548 244.80875 15874.643 2929.765 788.3783 1658.2192

exp_avg f4 [6, 6]
00000000: eec4 ce3e cba3 02c0 3031 b63f 1d42 4dbf
00000010: 5004 00c0 4fdd 0b40 1ef0 9dbf cff5 c13e
00000020: d3d6 113f 017e 5cbf 95dd a03f 5d82 9abe
00000030: c715 3540 ab8c 10c0 eea0 2bbe 5888 7b3f
00000040: f7dc 83c0 8c3f 1f40 4ddd 4ac0 1ebb 8540
00000050: 98cb ecbf 4349 02be 4683 d640 347d 8ec0
00000060: cb3e 8040 8008 a6c0 f6cc 0240 8a0f 233e
00000070: ad4d 02c1 e46b b340 254d 7bc0 9343 a340
00000080: 8198 01c0 ff5c 19be 750a 0041 1448 b0c0
0.4038462 -2.0412471 1.4233761 -0.80179006 -2.0002632 2.1853826 -1.2338903 0.3788285
0.5696842 -0.86129767 1.2567621 -0.30177584 2.8294542 -2.2585857 -0.16760609 0.9825492
-4.1207232 2.4882536 -3.1697571 4.1790915 -1.8499632 -0.1272326 6.7035246 -4.4527836
4.007665 -5.1885376 2.0437598 0.15923896 -8.143964 5.6069202 -3.9265835 5.101999
-2.024933 -0.14976881 8.002553 -5.5087986

exp_avg_sq f4 [6, 6]
00000000: 24c6 d843 bbc4 c444 5a83 1844 50ec 1142
00000010: 0a8d 0e45 3ef2 c144 62e3 0b44 c905 d744
00000020: 9654 0444 db38 1c42 78eb 2445 890f fe44
00000030: a906 7c44 91f4 3f45 b4a1 3544 834e 4142
00000040: f31f 9645 d109 6845 50c5 ce44 9e1f 8945
00000050: 316f 0044 d0d3 1642 349a cf45 e646 a345
00000060: dd7b 0545 3b79 b145 4ab9 2244 059e 2e42
00000070: dc18 0646 74ba d345 df16 fe44 84d5 a845
00000080: 89d0 1a44 edce 2642 a12c ff45 6f6d c945
433.54797 1574.1478 610.05237 36.480774 2280.815 1551.5701 559.55286 1720.1808
529.32166 39.055523 2638.7168 2032.4855 1008.10406 3071.2854 726.5266 48.32667
4803.9937 3712.6135 1654.166 4387.952 513.73737 37.70685 6643.2754 5224.8623
2135.7415 5679.154 650.89514 43.654316 8582.215 6775.3066 2032.7147 5402.6895
619.25836 41.702076 8165.5786 6445.679

exp_avg f4 [6]
00000000: edde 08bf 8230 583e 8125 52bf 4691 af3f
00000010: 7ba4 d7bf 4601 d43f
-0.5346516 0.21112254 -0.82088476 1.3716209 -1.684707 1.6562889

exp_avg_sq f4 [6]
00000000: 05dd 0843 874b 1343 839b 8343 f78a bc43
00000010: 6fe8 f343 b308 e843
136.86336 147.29503 263.21494 377.08566 487.8159 464.06796

exp_avg f4 [6, 6]
00000000: a337 ec40 3725 ff40 4442 fec0 b397 df40
00000010: dd71 e2c0 71fd e640 6487 9fc2 9bee a2c2
00000020: 13fd a042 4849 c4c2 3845 c642 acc8 c8c2
00000030: 4dd6 0ac1 d2e7 0cc1 d80a 0b41 3c5b 32c1
00000040: b97b 3441 9db4 36c1 c14b c041 a4bf c541
00000050: 8b98 c3c1 aebc e641 2ed3 e8c1 430d ec41
00000060: 596b d742 bd47 dd42 96a9 dac2 1c88 0243
00000070: 29b5 03c3 d56f 0543 ad62 8fbd 8c3b 87bd
00000080: 5cc0 943d eff5 ad3c 8307 debc 4ce8 753c
7.3817916 7.973293 -7.945589 6.987268 -7.0763993 7.2184377 -79.764435 -81.46603
80.494286 -98.14313 99.13519 -100.39194 -8.67732 -8.806597 8.690147 -11.147274
11.280206 -11.419095 24.03699 24.718575 -24.449484 28.842129 -29.103115 29.506475
107.70966 110.640114 -109.33122 130.53168 -131.70766 133.43684 -0.07001243 -0.066031545
0.07263252 0.021235434 -0.027103191 0.015008997

exp_avg_sq f4 [6, 6]
00000000: fe82 8346 d661 8f46 9ac6 8c46 d355 9446
00000010: ca59 9546 47c4 9946 711b 8b49 be74 9749
00000020: 8799 9449 b4e8 a049 a535 a249 4d24 a749
00000030: afed a446 d7b0 b346 1d50 b046 d5d8 bd46
00000040: b853 bf46 2e22 c546 6ec3 8f47 3650 9c47
00000050: a458 9947 d388 a747 edf3 a847 4616 ae47
00000060: 4cdc bc49 2f8f cd49 0bac c949 ea8c da49
00000070: 3251 dc49 fe01 e349 d953 213f da79 1d3f
00000080: 5f07 263f 30c8 193f 86f9 223f 259b 2e3f
16833.496 18352.918 18019.3 18986.912 19116.895 19682.139 1.1395661e+06 1.2407278e+06
1.2173289e+06 1.3181665e+06 1.3288206e+06 1.3692256e+06 21110.842 23000.42 22568.057 24300.416
24489.86 25233.09 73606.86 80032.42 78513.28 85777.65 86503.85 89132.55
1.5471455e+06 1.6839419e+06 1.6520974e+06 1.7903652e+06 1.8048382e+06 1.8596478e+06 0.63018566 0.61514056
0.64855 0.60071087 0.6366199 0.6820548

exp_avg f4 [6]
00000000: a623 c9be 6c1a c340 b1b4 2f3f bb18 e6bf
00000010: 68ca 03c1 6d5b fcb8
-0.3928501 6.0969753 0.6863509 -1.7976297 -8.236916 -0.00012033326

exp_avg_sq f4 [6]
00000000: 814c ab42 e131 b545 22a1 d642 d387 bb43
00000010: 35f3 f545 8b8e 3735
85.64942 5798.235 107.31471 375.06113 7870.401 6.838024e-07

exp_avg f4 [14, 14]
00000000: aa0f f2bf fbb7 ccbf 0aa3 45c0 d471 72c0
00000010: 0b80 27c0 4873 5cc1 af70 e4c0 ca76 0241
00000020: e466 9e40 ee01 5041 c6f9 0b41 19ea 8940
00000030: 5a19 fdbf 22c6 75bf 710d f540 536c 8940
00000040: 7ac1 6c41 07dc 0e41 87f3 3141 3bb0 9141
00000050: cc00 cd40 069b 04c1 47d5 23c1 93a4 94c1
00000060: 2c81 64c1 7c1c 6cc1 511a 58c1 fe1a 2041
00000070: 1f31 1642 05eb 0942 de92 fc41 3434 42bf
00000080: ac4c 46c1 f13e 83c1 8988 d3c1 99b5 f741
00000090: 9228 55c1 fe7d 0541 1805 fe40 2029 8bc1
000000a0: fc46 ccc1 947d cfc1 0c21 44c1 b91a 03c0
000000b0: e644 bbc1 b256 bec0 58b2 4fbe 88e8 3a41
000000c0: 50b3 5341 e1d1 67c1 bc6f 0d41 cca5 0fc1
000000d0: 33c2 7bc1 6d46 223f 4454 7841 7905 dd40
000000e0: 0f7a dbc1 87e8 ddc1 de94 d4c1 cfbd b340
000000f0: 4181 3d41 9c63 8141 41c6 8141 0e99 9dc1
00000100: 830d 7d41 a1bc b1bf 8b1c 18c1 b7cc 5141
00000110: 5dc9 bd41 11b6 a241 dce2 18c2 a959 ffc1
00000120: 9274 fac1 bdb9 0a41 863a 8341 058a b641
00000130: f7ae 6141 4180 89c1 3f62 3841 00c2 49c1
00000140: 6f9a a33d 288a 1841 f452 9d41 092a 8841
00000150: 1313 8741 16d9 8941 f68e 9b41 e29d b040
00000160: c160 11c1 78df 4ec1 eaf2 84c1 57a8 9b41
00000170: 77a5 fdc0 c5d1 8241 f39e 1b41 5186 68c1
00000180: fcfd a6c1 824f a1c1 c988 e43f 5777 bbbf
00000190: a362 c840 dcc8 1741 6423 f040 d165 cebf
000001a0: 9605 0240 3319 1bc0 d1c5 1cc0 69f3 aac0
000001b0: e2eb 8fc0 e5d7 14c1 a567 10bc d484 ca40
000001c0: ed6e 073f 1b91 9440 27eb 1d41 55eb dc40
000001d0: bca7 e9c0 c938 dc3f 52c5 43c0 c08c 5540
000001e0: 8602 ebbf b827 9fc0 b74b ccbe 0d3b 0940
000001f0: 384b 7dc0 66e4 26bf 9b09 d741 55c7 6040
00000200: 9986 0240 4c39 26c1 79d1 97c0 c6c8 86c0
00000210: 4882 7540 f4c9 80c0 89be 303f a26f 89c0
00000220: 53c2 f840 d0da 5440 556c d2c0 6664 4b41
00000230: 3241 3dc1 37a9 3bc0 9591 8ac0 646b de3d
00000240: 08ae 90c0 f202 58c0 cfe7 3cc0 7a0e 5240
00000250: b4ae 733d 1b9d b140 81d2 7f40 4333 8440
00000260: 8345 e43f d56e b13f 0b6d edc0 14a8 23c0
00000270: 5e00 acc0 6409 1fc1 c962 d740 703d 0e40
00000280: 8214 253f 5403 49bf 8ce6 7c40 2122 d140
00000290: e536 8540 4a15 a03e a69b f8c0 9f37 95bf
000002a0: ba97 f140 c96d a140 a479 2a3b 7ba3 54c0
000002b0: 17bc a1c0 3534 a040 ea50 88bf 3c43 9b3f
000002c0: 182d 66c0 d7a5 e5bf 926d dcc0 b3d4 4abd
000002d0: 1e22 6e3f 34e7 dc3f 7d9c 57c1 8260 97c0
000002e0: c198 25c1 446a 9740 8fe9 593f e991 da40
000002f0: 51e9 f03f 8946 edbf 0572 6140 63fb ce3f
00000300: e7b0 6640 beb8 6b41 461b 0941 7593 4bc1
-1.891103 -1.5993646 -3.088076 -3.7881975 -2.6171901 -13.778145 -7.1387553 8.154001
4.95006 13.000471 8.74848 4.3098264 -1.9773362 -0.9600545 7.657891 4.294473
14.7972355 8.928718 11.121955 18.21105 6.4063473 -8.2878475 -10.23957 -18.580359
-14.281536 -14.756954 -13.506425 10.00659 37.54797 34.47951 31.571712 -0.75860906
-12.393719 -16.405733 -26.441668 30.96367 -13.322405 8.34326 7.938122 -17.39508
-25.53466 -25.936317 -12.258068 -2.048506 -23.408642 -5.948083 -0.20282876 11.68177
13.231277 -14.48874 8.839779 -8.977978 -15.734912 0.6338871 15.520573 6.906918
-27.434599 -27.738539 -26.57269 5.61692 11.844056 16.173637 16.221804 -19.699734
15.815799 -1.388569 -9.5069685 13.112479 23.723322 20.3389 -38.221542 -31.91878
-31.30692 8.670346 16.403576 22.817392 14.105216 -17.187624 11.523986 -12.609863
0.0798844 9.53373 19.665504 17.020525 16.884314 17.230999 19.444805 5.519273
-9.086122 -12.929558 -16.61861 19.457197 -7.9264483 16.352427 9.726306 -14.532792
-20.874016 -20.163822 1.7854244 -1.4645795 6.2620406 9.486538 7.50432 -1.6124822
2.031591 -2.423413 -2.4495738 -5.342213 -4.4975443 -9.302709 -0.008813773 6.3287144
0.52903634 4.642713 9.86991 6.903727 -7.3017254 1.720483 -3.0589185 3.3367157
-1.8360145 -4.9735985 -0.39901516 2.1442292 -3.957716 -0.6519226 26.87969 3.5121663
2.0394652 -10.3889885 -4.7443204 -4.2120085 3.8360767 -4.0246525 0.69040734 -4.294877
7.773721 3.3258553 -6.575724 12.712011 -11.828417 -2.932203 -4.3302712 0.10860327
-4.521244 -3.3751798 -2.9516485 3.2821336 0.05949278 5.550428 3.9972231 4.1312575
1.7833713 1.3861948 -7.419561 -2.5571337 -5.375045 -9.939793 6.7308087 2.2224998
0.6448442 -0.78520703 3.9515715 6.535416 4.162951 0.31266242 -7.769 -1.1657599
7.5497713 5.0446515 0.0026012445 -3.322478 -5.05421 5.006373 -1.0649693 1.2129893
-3.5965023 -1.7941235 -6.8883753 -0.049519252 0.9302081 1.7258058 -13.475705 -4.7305307
-10.349793 4.731722 0.8512201 6.8303113 1.8821203 -1.8537151 3.5225842 1.6170467
3.6045473 14.732603 8.569159 -12.7235

exp_avg_sq f4 [14, 14]
00000000: 2308 d644 d70e a844 1e22 8344 091d 6244
00000010: 5386 b244 3ce5 4644 cdde f643 8b67 2744
00000020: 27d4 9844 f4a2 7044 e4a5 c744 3163 2344
00000030: 8cf7 f243 0524 6043 84e0 b545 e5f9 8345
00000040: 5456 eb44 bc48 0845 1c4b ba44 8b81 5e44
00000050: e63b 9344 6394 ba44 80c7 5745 53b2 0445
00000060: a8dd d844 c2b9 8244 e1a3 a844 262c 1645
00000070: d780 e545 0a46 8a45 f1cd 7745 3168 8a45
00000080: d47c 6545 8977 8145 c745 fc44 790d 2c45
00000090: 3cc9 3645 0314 1145 259d 5145 4aa6 7045
000000a0: 2e93 6e45 0626 cc45 cce4 2d45 fa0a 0d45
000000b0: d4a9 1545 7287 0a45 8ca7 5b45 cafe 3445
000000c0: 01be 4144 e6d1 8444 392e 9d44 e83a 7e44
000000d0: fc86 2a45 f187 f044 c58f e944 4f61 7744
000000e0: 8bbe 7546 0317 fa45 3656 e045 a2b4 cc45
000000f0: 6d3e be45 40c6 9c45 607c 4c45 2bdf 8e45
00000100: c1e8 8845 3e25 6345 01a8 c745 9b7f 1246
00000110: e23e c645 7461 9b45 1879 1f46 528c 9445
00000120: 228a 6145 0827 6945 ffc3 6645 de76 7a45
00000130: c977 eb44 30e1 2245 7ecb 0b45 b987 d744
00000140: f202 5645 241d 4445 35d4 3c45 73fd 7745
00000150: b4ef 8645 f80a 3845 d41b 1145 7db7 2445
00000160: 6ed2 1245 a5ad 3c45 736b 9944 ed86 d344
00000170: 00da c144 0982 bb44 bab3 2445 d406 3245
00000180: e60e 1d45 f7f6 4145 2c53 ee44 7410 3e44
00000190: 2dfc 0f44 5591 4e44 95c2 6444 eaf0 8444
000001a0: 781a 2f44 4b67 6844 2ccd a944 fec4 2644
000001b0: 91dd 3444 ba72 3a44 3e06 9544 3a46 bc44
000001c0: b786 7b44 7c17 1444 f7ab 3d44 a712 9144
000001d0: c06f 6044 3671 8a44 8155 0644 53c0 3d44
000001e0: df0c 8744 57c3 7c44 ce1e 4744 6dcf 7844
000001f0: f6c4 4b44 6054 9344 5af8 5b45 ef58 1745
00000200: 1c55 af44 032f d244 5f21 e644 5b51 c544
00000210: 33be 8a44 21f8 be44 aac9 b344 a537 6344
00000220: f68f 4b45 eded 1545 9c98 7f45 b9d1 5445
00000230: 11e7 8844 5119 2344 3dad 2544 a2cf 7b44
00000240: 9db7 3f44 c870 1d44 2646 9343 38bd c643
00000250: e8dc 4644 69d2 2944 aa24 6a44 5aa9 7144
00000260: 56d1 2344 2251 d843 f2ab 2945 4704 c644
00000270: 8813 9d44 2c49 9144 d0f5 9a44 1fa5 b244
00000280: 2baf 2244 b921 5c44 9c20 a744 5d97 4044
00000290: 6bb2 8944 4304 6044 9003 8944 224b b944
000002a0: f70a fb44 4698 9c44 e227 8044 94cd ca44
000002b0: d428 1544 e8ee aa43 7c49 fb43 43d5 2b44
000002c0: 5f66 5f44 0dbb 2444 19a2 a444 e2d6 7e44
000002d0: 044c 5244 d979 ae44 ad81 8f45 77b1 f244
000002e0: c2dc d244 4010 ba44 ac51 b944 24f9 f544
000002f0: ebf5 8544 73c5 bf44 2a79 0f45 1005 9b44
00000300: 7811 c444 4f87 5c44 1443 ec44 e9c1 4245
1712.2543 1344.4637 1049.0662 904.4537 1428.1976 795.5818 493.74063 669.61786
1222.6298 962.54614 1597.1841 653.54987 485.93396 224.1407 5820.0645 4223.237
1882.6978 2180.546 1490.3472 890.0241 1177.8718 1492.6371 3452.4688 2123.1453
1734.9268 1045.8049 1349.1212 2402.7593 7344.105 4424.755 3964.8713 4429.024
3671.8018 4142.942 2018.1805 2752.842 2924.5771 2321.2507 3353.8215 3850.393
3817.1987 6532.753 2782.2998 2256.686 2394.6143 2216.4653 3514.4717 2895.9243
774.9688 1062.5593 1257.4445 1016.9204 2728.4365 1924.2482 1868.4928 989.52045
15727.636 8002.8765 7178.7764 6550.579 6087.803 5016.7812 3271.7734 4571.896
4381.094 3634.3276 6389.0005 9375.901 6343.8604 4972.1816 10206.273 4753.54
3608.6333 3730.4395 3692.2498 4007.4292 1883.7433 2606.0742 2236.7183 1724.2413
3424.184 3137.8213 3021.263 3967.8406 4317.963 2944.6855 2321.7393 2635.468
2349.1519 3018.8528 1227.3578 1692.2164 1550.8125 1500.0636 2635.233 2848.4268
2512.9312 3103.4353 1906.5991 760.2571 575.94025 826.2708 915.04034 1063.5286
700.4136 929.61395 1358.4116 667.078 723.462 745.7926 1192.1951 1506.1946
1006.1049 592.36694 758.68695 1160.5829 897.7461 1107.5378 537.336 759.00507
1080.4022 1011.0522 796.4813 995.241 815.0775 1178.6367 3519.522 2421.5583
1402.6597 1681.4691 1841.0428 1578.5424 1109.9437 1527.754 1438.302 908.86945
3256.9976 2398.8704 4089.538 3405.1077 1095.2208 652.39557 662.70685 1007.24426
766.86896 629.7622 294.54803 397.47827 795.45166 679.28766 936.5729 966.6461
655.2709 432.63385 2714.7466 1584.1337 1256.6104 1162.2866 1239.6816 1429.16
650.737 880.5269 1337.019 770.36505 1101.5756 896.0666 1096.1113 1482.3479
2008.3427 1252.7585 1025.2463 1622.4243 596.63794 341.86646 502.5741 687.3322
893.59955 658.92267 1317.0656 1019.35754 841.18774 1395.8077 4592.2095 1941.5458
1686.8987 1488.5078 1482.5522 1967.7856 1071.6849 1534.1703 2295.5728 1240.1582
1568.5459 882.1142 1890.0962 3116.1194

exp_avg f4 [14]
00000000: 5836 8f40 dbce 83c0 1b48 8541 6d20 02c1
00000010: 2c14 26c1 d38f 0ec1 83e0 2741 3ca4 a8bf
00000020: cce2 ef3f 7b60 20c0 583c f23f 5817 b7be
00000030: 68dc 2c3f c182 96bf
4.4753838 -4.119001 16.660208 -8.132916 -10.379925 -8.910113 10.492312 -1.317512
1.8741088 -2.5058887 1.8924665 -0.35759997 0.67523813 -1.1758653

exp_avg_sq f4 [14]
00000000: 1183 4643 1bcb ef43 5961 4a44 de43 9943
00000010: 0159 a444 4809 3c44 3c46 f543 82cc 8d43
00000020: 976a 5443 8a00 dc43 f401 eb42 eb03 8243
00000030: 5ba5 4843 1abb d443
198.51198 479.58676 809.52106 306.5302 1314.7814 752.145 490.5487 283.59772
212.41637 440.0042 117.503815 260.0306 200.64592 425.46173

exp_avg f4 [14, 14]
00000000: 71f7 bbc0 21e9 87c1 fb30 1ac1 c930 e5c0
00000010: 34c9 b5c0 a4a0 e3c0 20d5 04c1 a01f 1c41
00000020: 0f73 c140 950b 7d40 045c 8741 d837 4a41
00000030: 1ac6 3141 adfa b140 bea8 3340 356a 563e
00000040: 3d2f c640 d156 a741 e902 8041 a79e 0a41
00000050: 69b1 9640 48a7 a3c0 af72 c5bf 98a5 36c1
00000060: 81f1 84c0 dfc6 a93e e266 33c1 04d1 2fc1
00000070: 1a27 ffc1 a9b1 f6c1 eeb6 f3c1 1989 bdc1
00000080: 3591 d5c1 3973 07c2 31ab 86c1 d349 9a41
00000090: 2953 f340 0d92 7941 c23f d941 5f7d 0b42
000000a0: 0db8 3742 8501 5542 45a5 3241 7e85 6d40
000000b0: 1d86 1cc1 4733 80c1 4ce6 a7c1 0fc2 f7c0
000000c0: a291 5841 5d65 81c1 b431 0640 43ba 2b3e
000000d0: ec16 c9c0 4b6a 5cc0 e9db 9441 60f9 3c41
000000e0: 3794 fdc0 b7bc a2c1 f5da 01c2 f767 b6c1
000000f0: 1fb6 15c1 c625 12bf e0ef f441 290d 0cc2
00000100: dab0 37c1 8a40 f13e 590c ff40 01b0 9341
00000110: e553 2c42 9704 7142 982b a0c1 a207 17c2
00000120: 1f4a b9c1 a73b 09c2 e9d1 a5c1 5c5e eb40
00000130: 3aa8 1542 b80a 30c2 f4bd 0f41 c642 d6be
00000140: aca9 113f cdcc 0042 8c4a 1442 6598 5542
00000150: b4c5 5fc1 dff3 13c1 88cd 09c1 9d41 55c0
00000160: e0b7 85c0 805a e3bf 1a80 a4bf 02f5 ca3f
00000170: c298 0ebf 1ecf b83f e875 6541 35de df40
00000180: 5fea dc40 486d 4241 6028 21c1 bb32 0dc1
00000190: 72d1 08be 6823 d6c0 5460 ef40 431a 5fbf
000001a0: 0276 8bbe 6aea 0d3f de5a 3441 1945 da3e
000001b0: a28e 57c0 df4b 0b3e 4201 9b40 fe7a 1340
000001c0: 3787 86c1 17d4 1bc1 eb23 1fc1 c9e3 ecbf
000001d0: 47b5 d5c0 c5c6 8ac0 a669 c7c0 3d44 ed40
000001e0: f24a 2f40 9870 e240 b70e 0541 4ced fb40
000001f0: 9d0d 0e41 9d74 0a41 11f3 e840 6ca9 7c40
00000200: bebf c0c0 3a46 8840 b729 9d40 144a a1bf
00000210: 7a36 2f40 4795 2dc0 7ffc 8cbf ecf6 5740
00000220: 892b a0bc 0215 7540 bba0 57bf af93 62c0
00000230: 7fb7 f33e dbf4 0bc1 5bb9 b1c0 a2db bbbf
00000240: 361c 7b40 3139 5f40 7123 2ec0 158e 4840
00000250: fd3c c840 61d0 c13f 3941 5f40 d1c3 493f
00000260: 109f 6ebe f5c2 01c1 a539 0e41 a482 863f
00000270: a4b5 a63f 3b2a 8140 0810 5a40 cc97 d43f
00000280: 4466 1c40 211e 36c0 dd30 5a3f cef6 9abf
00000290: e9ed 52bf 0fa1 3fc0 00fa 52c0 8d02 f0c0
000002a0: b290 fe40 3977 ae41 7076 1940 736b e6c0
000002b0: 0b18 1f40 8bb5 26c0 1f1d 0cc0 a63a 2a40
000002c0: 0e1a 41c0 46c2 7cc1 e6b7 9ac1 08f7 12c1
000002d0: f5b5 7541 3f7a 0741 35ba e1bf 2187 903f
000002e0: 7f80 45c0 f82e 5fc0 3399 493d 9b9f c640
000002f0: 94a4 7840 b2fc 97c0 a65e 8b40 fb8c f140
00000300: dbf4 7740 ef81 7bbd a01b c3c0 2b2d 49c1
-5.8739552 -16.988832 -9.636958 -7.162205 -5.680811 -7.1133595 -8.302032 9.757721
6.0452952 3.953832 16.91993 12.638634 11.110865 5.56185 2.8071742 0.20938952
6.1932664 20.91739 16.001421 8.6637335 4.7091565 -5.11417 -1.5425624 -11.415428
-4.1544805 0.3315954 -11.212618 -10.988529 -31.894093 -30.836748 -30.464321 -23.691942
-26.695902 -33.862522 -16.83359 19.286047 7.6039014 15.598157 27.156132 34.872433
45.929737 53.251484 11.165349 3.7112727 -9.7827425 -16.025038 -20.98745 -7.742439
13.535555 -16.174494 2.0967836 0.16770272 -6.284048 -3.4439876 18.607378 11.810883
-7.9243426 -20.342146 -32.463825 -22.800764 -9.356963 -0.5708889 30.617126 -35.01285
-11.480677 0.47119552 7.9702573 18.46094 43.08193 60.254482 -20.021286 -37.757454
-23.161192 -34.308254 -20.727495 7.3552685 37.414284 -44.010468 8.983875 -0.4184782
0.56899524 32.2 37.0728 53.398823 -13.985767 -9.247039 -8.612679 -3.3321297
-4.1786957 -1.7761993 -1.2851593 1.585602 -0.5570184 1.4438207 14.341286 6.995875
6.9036098 12.15168 -10.072357 -8.824885 -0.13361147 -6.691822 7.480509 -0.8714945
-0.2723847 0.5543581 11.272184 0.42630842 -3.3680806 0.13603161 4.8439035 2.3043818
-16.816023 -9.73928 -9.946269 -1.8507015 -6.6783786 -4.336764 -6.2316465 7.41458
2.7389493 7.0762444 8.3160925 7.872717 8.878324 8.65347 7.279671 3.9478407
-6.023406 4.2585726 4.911342 -1.2600732 2.7377 -2.7122362 -1.1014556 3.374446
-0.01955201 3.8294072 -0.8422963 -3.540264 0.47600934 -8.747279 -5.5538764 -1.4676402
3.9235969 3.4878657 -2.7209132 3.133672 6.257445 1.5141717 3.4883559 0.7881442
-0.23302865 -8.110097 8.889073 1.0508618 1.3024182 4.036405 3.4072285 1.6608825
2.4437418 -2.845589 0.8523081 -1.2106569 -0.8239427 -2.9942052 -3.2965088 -7.5003114
7.955163 21.808214 2.3978539 -7.2006164 2.4858425 -2.6048305 -2.1892774 2.6598296
-3.0172153 -15.79743 -19.339794 -9.18531 15.356923 8.467345 -1.7634951 1.1291238
-3.0859678 -3.4872417 0.049218368 6.206983 3.885045 -4.7495966 4.355304 7.5484595
3.8743198 -0.06140321 -6.097122 -12.573527
