checkpoints/1500epoch_0.75stepsize/checkpoints/last.ckpt (torch, 58075 bytes, 87 tensors)

model.revin.gamma f4 [1, 1, 6]
0.1886879 0.9714846 1.3391397 0.836837 0.8676589 1.3253719
00000000: 6737 413e 37b3 783f ee68 ab3f f33a 563f
00000010: e51e 5e3f c9a5 a93f

model.revin.beta f4 [1, 1, 6]
-0.27579248 0.8389539 -0.3164449 -0.06322809 1.2995334 -0.71920824
00000000: ac34 8dbe afc5 563f 1105 a2be bb7d 81bd
00000010: 1c57 a63f 081e 38bf

model.attention.temporal_attention.q_proj.weight f4 [6, 6]
0.19734824 -0.009373948 0.10383071 -0.052130185 -0.16053826 -0.3392961 0.11915933 -0.20312259
-0.11661685 0.09836605 -0.06715425 0.08013853 -0.055260602 0.28081483 -0.19564477 0.122101896
0.22788721 0.0007832265 0.274769 -0.2278522 -0.17524494 -0.0926246 -0.568584 0.015443997
0.23163144 -0.48066345 0.068878874 -0.012300288 -0.319712 -0.12919909 0.056769554 0.36757207
-0.26809916 0.19661325 0.43096718 0.07832085
00000000: a815 4a3e 3095 19bc 32a5 d43d 7686 55bd
00000010: 2464 24be 38b8 adbe cf09 f43d 5eff 4fbe
00000020: d1d4 eebd 2474 c93d 2b88 89bd ab1f a43d
00000030: f158 62bd f6c6 8f3e 1a57 48be 8f10 fa3d
00000040: 445b 693e 7151 4d3a 86ae 8c3e 1652 69be
00000050: 6973 33be f7b1 bdbd b98e 11bf d208 7d3c
00000060: cb30 6d3e 8519 f6be 5e10 8d3d 2687 49bc
00000070: 4bb1 a3be c44c 04be 3187 683d 6832 bc3e
00000080: 4b44 89be fc54 493e bba7 dc3e af66 a03d

model.attention.temporal_attention.q_proj.bias f4 [6]
-0.5043602 -0.42870983 0.87001455 -0.49281582 -0.5637123 0.69499874
00000000: c01d 01bf db7f dbbe 46b9 5e3f 5b52 fcbe
00000010: 734f 10bf 70eb 313f

model.attention.temporal_attention.k_proj.weight f4 [6, 6]
0.6027129 0.14550187 -0.21499787 0.56635725 -0.06388756 -0.45754966 0.27581626 0.21063368
-0.24103789 0.7600708 -0.09017966 -0.34812665 0.8356404 0.23226556 -0.3264338 0.6818922
-0.057306178 -0.66837746 -0.37145063 0.39258534 0.4250152 0.68136096 0.20171808 -0.42804015
-0.25507697 0.09355112 0.3502994 0.6659579 -0.018876376 -0.4691354 -0.22706816 0.40082914
0.49895614 0.83314866 0.2395243 -0.632799
00000000: 654b 1a3f 71fe 143e 6728 5cbe cafc 103f
00000010: 7bd7 82bd f343 eabe ca37 8d3e 5bb0 573e
00000020: a3d2 76be 0094 423f 1db0 b8bd a83d b2be
00000030: 87ec 553f 06d7 6d3e 5522 a7be 7d90 2e3f
00000040: e2b9 6abd c91a 2bbf c72e bebe f200 c93e
00000050: 989b d93e ac6d 2e3f 2f8f 4e3e 1428 dbbe
00000060: 7399 82be bb97 bf3d 715a b33e 387c 2a3f
00000070: a1a2 9abc 8432 f0be 8e84 68be 7a39 cd3e
00000080: 2e77 ff3e 3b49 553f dc45 753e 1eff 21bf

model.attention.temporal_attention.k_proj.bias f4 [6]
-0.7578352 -0.9555296 -0.80977935 -0.6686501 -0.6450207 -0.7337132
00000000: 7d01 42bf 969d 74bf b34d 4fbf a72c 2bbf
00000010: 1420 25bf a1d4 3bbf

model.attention.temporal_attention.v_proj.weight f4 [6, 6]
-0.20275006 -0.9809984 0.81723 -1.3598124 -0.97452897 1.2000805 -0.37316817 -1.1213166
0.891096 -1.4800361 -0.95555097 1.256504 0.4016552 1.0859659 -0.89003146 1.4864569
0.96006453 -1.2750733 0.95959044 -1.0467001 -0.24438113 -1.075319 -0.99217767 0.9552429
-0.9804035 1.0149057 0.31761238 1.067314 1.0327979 -0.9602234 0.9912069 -1.0462102
-0.3071895 -1.0462756 -1.0006225 1.0254611
00000000: b69d 4fbe b622 7bbf fc35 513f 550e aebf
00000010: bb7a 79bf 3d9c 993f e60f bfbe 4d87 8fbf
00000020: de1e 643f d371 bdbf fd9e 74bf 20d5 a03f
00000030: c0a5 cd3e ee00 8b3f 1ad9 63bf 3844 be3f
00000040: cac6 753f 9a35 a3bf b8a7 753f 45fa 85bf
00000050: 0c3f 7abe 0ea4 89bf 5bff 7dbf cc8a 743f
00000060: b9fb 7abf 6ee8 813f 179e a23e bf9d 883f
00000070: b932 843f 33d1 75bf bcbf 7d3f 37ea 85bf
00000080: f147 9dbe 5cec 85bf 6614 80bf 4f42 833f

model.attention.temporal_attention.v_proj.bias f4 [6]
-0.8524993 -0.9545237 0.946702 -0.85214925 0.8751465 -0.85389066
00000000: 653d 5abf aa5b 74bf 105b 723f 7426 5abf
00000010: 9a09 603f 9498 5abf

model.attention.temporal_attention.out_proj.weight f4 [6, 6]
1.179383 1.1513419 -1.1390822 1.0200584 -1.017679 0.9971858 -0.14953457 -0.2215786
0.15965328 -0.20489791 0.22365245 -0.22102396 -0.20875248 -0.27607062 0.19453081 -0.18144907
0.21961197 -0.2569496 -0.12051847 -0.19608809 0.244936 -0.47441497 0.49760094 -0.48947376
-0.11731602 -0.25910306 0.2683857 -0.3460191 0.3945966 -0.3959054 -0.39217636 -0.78710574
0.78329945 -0.41539124 0.49647084 -0.5166531
00000000: 06f6 963f 2c5f 933f 72cd 91bf 4691 823f
00000010: 4e43 82bf 9247 7f3f 971f 19be 80e5 62be
00000020: 267c 233e c2d0 51be 2605 653e 1b54 62be
00000030: 36c3 55be 2159 8dbe 1633 473e c9cd 39be
00000040: f6e1 603e e68e 83be 63d2 f6bd 51cb 48be
00000050: 81d0 7a3e 85e6 f2be 8dc5 fe3e 4e9c fabe
00000060: 6243 f0bd 28a9 84be da69 893e 6a29 b1be
00000070: 9108 ca3e 1db4 cabe 57cb c8be c37f 49bf
00000080: 5086 483f 29ae d4be 6d31 fe3e 6143 04bf

model.attention.temporal_attention.out_proj.bias f4 [6]
-0.46834573 0.10992485 0.13161606 0.18377984 0.16290529 0.00026959044
00000000: 03cb efbe 4820 e13d 5cc6 063e c830 3c3e
00000010: a5d0 263e d157 8d39

model.attention.feature_attention.q_proj.weight f4 [14, 14]
0.06597651 0.005821619 0.040941637 -0.11317094 -0.05200428 -0.053526953 -0.32614526 -0.20659627
-0.08514193 -0.09814702 -0.15996717 -0.07298426 0.14218271 0.9883263 -0.11487603 -0.042232595
-0.072684295 -0.053071402 -0.07623323 0.28412822 0.7021117 0.17770526 0.092377566 0.07167409
-0.02192076 -0.013735006 -0.3694701 -0.9104505 0.34751743 0.49388745 0.26946068 0.1883606
0.25323254 0.3180574 -0.15115157 -0.32378542 -0.0016575309 -0.46558172 -0.47553733 -0.30486092
-0.34034464 -0.011575904 0.14119515 0.20937917 0.14350252 0.21052045 -0.049623616 -0.066304825
0.40441728 -0.12597057 -0.13370927 -0.1642171 -0.22215037 -0.034135267 -0.35499528 -0.52693176
0.14406565 0.24959256 0.23379752 0.19333093 0.15692797 0.1422885 0.44614288 -0.13739903
-0.18485735 -0.053137973 -0.30766907 -0.09127385 -0.38128686 -0.6076171 0.11621893 0.03759918
0.31193796 0.3221325 -0.0116030015 -0.02149056 0.36123288 0.045883626 -0.09869544 0.11532409
-0.26128823 0.016456706 -0.13923803 -0.8561787 0.11943556 0.6186605 0.06835228 0.21794468
0.31468314 0.5776043 0.02118561 -0.6495466 -0.14336221 -0.4797888 -0.16789085 -0.3745847
-0.1285747 -0.029733581 0.41407463 0.3399035 0.25469252 -0.014745414 -0.3311562 -0.13501784
0.3395587 -0.23529987 0.22549236 0.05473241 0.03274018 -0.36952123 -0.2689936 -0.5876266
0.5035732 0.2613851 0.13672906 -0.077218525 -0.40010032 -0.4379867 0.1956715 -0.181604
0.31723934 -0.000272634 0.01523643 -0.19884577 -0.15051816 -0.6016185 0.007911222 0.053625464
-0.13519232 -0.009660817 0.06530203 0.20469564 0.37549505 -0.4176492 -0.03425394 0.09516049
0.07000877 0.056860745 0.050168913 -0.101241775 -0.25251135 -0.14184962 -0.1975216 -0.22862719
-0.06527413 -0.073587336 -0.4245292 0.07686115 -0.25670177 -0.16897996 0.15600334 0.38333058
0.50312304 0.9046533 -0.028315473 0.025996506 -0.0313539 0.007726435 0.4374409 0.21003966
-0.24208088 -0.051484592 -0.19368085 -0.2080576 -0.11235522 -0.02568207 0.12196189 0.3483197
-0.20817898 -0.071673125 -0.24749833 -0.05962369 0.08242004 0.44982484 0.6263313 0.20814022
0.2411828 0.029408567 -0.077489056 -0.34421736 -0.37795758 -0.70397 0.0037526884 0.13267066
-0.096614964 0.22137043 0.1960812 0.43215477 0.43721166 -0.030167295 -0.09120693 -0.19611211
-0.16192678 -0.35845593 -0.60799485 -0.1911539
00000000: b11e 873d 48c3 be3b 6bb2 273d 2ac6 e7bd
00000010: 7102 55bd 143f 5bbd 83fc a6be f98d 53be
00000020: e45e aebd 4e01 c9bd 6fce 23be c678 95bd
00000030: 5898 113e f402 7d3f 2044 ebbd 16fc 2cbd
00000040: 81db 94bd 6661 59bd 2b20 9cbd 4179 913e
00000050: 98bd 333f 5ef8 353e 7330 bd3d dec9 923d
00000060: 2a93 b3bc ca08 61bc 2f2b bdbe 4913 69bf
00000070: ceed b13e d1de fc3e c0f6 893e 9ae1 403e
00000080: b2a7 813e 6bd8 a23e 7ac7 1abe 34c7 a5be
00000090: 8241 d9ba ba60 eebe a179 f3be bb16 9cbe
000000a0: a741 aebe dca8 3dbc 7695 103e 7e67 563e
000000b0: 53f2 123e ac92 573e 2242 4bbd d3ca 87bd
000000c0: c80f cf3e 6efe 00be 15eb 08be 8728 28be
000000d0: 637b 63be 6cd1 0bbd f1c1 b5be 00e5 06bf
000000e0: f285 133e 3195 7f3e 9e68 6f3e 8bf8 453e
000000f0: bab1 203e 14b4 113e d76c e43e 55b2 0cbe
00000100: 3f4b 3dbe 34a7 59bd cd86 9dbe c9ed babd
00000110: 0838 c3be cb8c 1bbf 3104 ee3d 9901 1a3d
00000120: 55b6 9f3e 8dee a43e 841a 3ebc f90c b0bc
00000130: 84f3 b83e 78f0 3b3d d620 cabd 092f ec3d
00000140: 92c7 85be 37d0 863c 6a94 0ebe 872e 5bbf
00000150: a29a f43d 8960 1e3f 48fc 8b3d e42c 5f3e
00000160: 261e a13e e0dd 133f 728d ad3c b048 26bf
00000170: 8bcd 12be e1a6 f5be 94eb 2bbe 91c9 bfbe
00000180: 16a9 03be d793 f3bc 9701 d43e d507 ae3e
00000190: 0f67 823e c096 71bc 4e8d a9be 1e42 0abe
000001a0: a3da ad3e 73f2 70be 78e7 663e 172f 603d
000001b0: 911a 063d e331 bdbe 87b9 89be b26e 16bf
000001c0: 2cea 003f 45d4 853e b402 0c3e bf24 9ebd
000001d0: f3d9 ccbe cb3f e0be 1c5e 483e 66f6 39be
000001e0: 326d a23e 51f0 8eb9 38a2 793c 3a9e 4bbe
000001f0: 6f21 1abe ac03 1abf 129e 013c 60a6 5b3d
00000200: db6f 0abe 6748 1ebc 12bd 853d bc9b 513e
00000210: e340 c03e 1ed6 d5be dc4d 0cbd 81e3 c23d
00000220: c260 8f3d d0e6 683d eb7d 4d3d d957 cfbd
00000230: 2b49 81be 0741 11be 1a43 4abe 3f1d 6abe
00000240: 71ae 85bd f5b4 96bd e45b d9be 6169 9d3d
00000250: 6a6e 83be 1509 2dbe 57bf 1f3e e843 c43e
00000260: accc 003f 5c97 673f daf5 e7bc a0f6 d43c
00000270: f26c 00bd 092e fd3b 41f8 df3e a314 573e
00000280: 0de4 77be 82e1 52bd 4654 46be 0d0d 55be
00000290: 7e1a e6bd 3463 d2bc 28c7 f93d f656 b23e
000002a0: df2c 55be 5cc9 92bd 3470 7dbe f837 74bd
000002b0: d7cb a83d 714f e63e 4057 203f b622 553e
000002c0: a0f8 763e 3cea f03c 95b2 9ebd 423d b0be
000002d0: a883 c1be 6137 34bf aaef 753b d1da 073e
000002e0: 11de c5bd eeae 623e 83c9 483e 6443 dd3e
000002f0: 35da df3e 6721 f7bc b3ca babd 9dd1 48be
00000300: 22d0 25be 8987 b7be 8da5 1bbf d9bd 43be

model.attention.feature_attention.q_proj.bias f4 [14]
0.044415146 -0.12603526 0.030665241 -0.2616947 -0.32239172 -0.19339527 -0.35685715 -0.28916168
-0.15168174 -0.47902584 0.35354304 0.12391776 -0.09218864 -0.2507892
00000000: a8ec 353d 630f 01be ac35 fb3c d9fc 85be
00000010: 8710 a5be 6909 46be fbb5 b6be 000d 94be
00000020: 7552 1bbe e042 f5be 9803 b53e 98c8 fd3d
00000030: 66cd bcbd 7167 80be

model.attention.feature_attention.k_proj.weight f4 [14, 14]
-0.36421075 -0.19768786 -0.21792763 -0.18946911 -0.117823444 -0.2893179 1.1543413 -1.8323035
0.21597719 0.18946387 0.22615622 0.26848212 0.4658845 0.54258054 -0.23678055 -0.31169367
-0.14317645 0.100754485 0.18806675 0.26005322 0.6368507 0.03562456 0.44845176 0.20965777
0.082576565 -0.06603003 -0.19276826 -0.31453785 -0.37615892 -0.36408985 -0.5146349 -0.49228942
-0.20606044 0.17158228 0.19814664 0.19081523 0.3292205 0.11339521 0.12492335 0.38980788
0.111837246 0.42916018 -0.094579324 -0.030279791 -0.09270162 0.07400812 0.032334033 0.24127212
0.3645688 -0.014931686 0.26871923 0.10146427 -0.057595897 0.0065771188 -0.16501853 -0.16699433
-0.038912524 0.08358134 -0.022601226 0.07730934 -0.04907746 0.12922159 0.3215629 0.075132154
0.29747373 0.10549181 -0.07008746 -0.072856024 -0.16735318 -0.17339054 -0.037909973 0.05380562
-0.0477998 0.07995121 0.033667613 0.1962516 0.3523286 0.056149255 0.26111978 0.19401236
-0.012591847 -0.02291512 -0.07419422 -0.28779438 -0.2904731 -0.1949283 -0.33046517 -0.19496234
-0.09257008 -0.019994568 0.17247078 0.06312608 0.27687716 0.17172691 0.1666448 0.24038097
-0.011121781 0.27795768 0.05142448 0.11848203 0.03344584 0.122105725 0.03895021 0.08778468
0.13521495 0.06808599 0.1348866 0.028754624 -0.10649184 -0.24060023 -0.19165628 -0.25265563
0.16638573 0.17498699 0.12155996 0.124375574 -0.083079554 -0.048117448 -0.029652897 0.22597396
-0.0879487 0.023671988 -0.13350433 -0.11067252 -0.055609252 -0.20826444 0.24413154 0.007355191
-0.0792716 -0.18733528 -0.15934098 -0.009895414 0.03803738 0.04621725 -0.1641698 -0.06479313
0.14648846 0.13054669 0.050440233 -0.078593306 -0.3806912 -0.2669227 -0.31436783 -0.24732393
-0.115048476 -0.08576542 1.1219203 -1.5401181 0.2440924 0.2513265 0.2635819 0.2504116
0.24370643 0.33045366 -0.37758774 -0.24348794 -0.29877293 -0.23318054 -0.0869332 -0.05184523
1.0784618 -1.343638 0.20355825 0.24599768 0.2242688 0.22017765 0.19795035 0.29879197
0.11613455 0.058753204 0.059943102 0.20579849 -0.06980109 0.12794892 0.124989465 0.48537275
-0.10982588 -0.39440995 -0.20533706 0.05823467 0.050199885 -0.15322062 0.1940836 -0.021025011
-0.03216801 0.15576304 -0.008361255 0.23433322 0.10982931 0.28187093 0.114181966 -0.17842342
-0.1474273 -0.12936239 -0.25087893 -0.059014585
00000000: d579 babe b06e 4abe 6c28 5fbe 3104 42be
00000010: 6b4d f1bd 7a21 94be 75c1 933f ec88 eabf
00000020: 2029 5d3e d102 423e 7f95 673e 7d76 893e
00000030: 6a88 ee3e 8fe6 0a3f 9a76 72be 5096 9fbe
00000040: d99c 12be 5e58 ce3d 9294 403e b225 853e
00000050: a608 233f 0feb 113d 789b e53e 87b0 563e
00000060: e71d a93d c13a 87bd 0b65 45be 1b0b a1be
00000070: e797 c0be fc69 babe 1dbf 03bf 5c0d fcbe
00000080: 8201 53be 44b3 2f3e f4e6 4a3e 1165 433e
00000090: 978f a83e bf3b e83d d0d7 ff3d e694 c73e
000000a0: ed0a e53d e2ba db3e ceb2 c1bd 530d f8bc
000000b0: 59da bdbd 9291 973d b170 043d 0a10 773e
000000c0: c3a8 ba3e 08a4 74bc 9195 893e 80cc cf3d
000000d0: ade9 6bbd df84 d73b 9efa 28be 9000 2bbe
000000e0: bd62 1fbd b22c ab3d 3526 b9bc 5c54 9e3d
000000f0: 7205 49bd aa52 043e e4a3 a43e e3de 993d
00000100: 7a4e 983e 170c d83d 048a 8fbd 8a35 95bd
00000110: a25e 2bbe 4a8d 31be 7d47 1bbd 4863 5c3d
00000120: b9c9 43bd 76bd a33d 0de7 093d 2ef6 483e
00000130: 6a64 b43e c3fc 653d 7eb1 853e 2dab 463e
00000140: 094e 4ebc 7db8 bbbc 24f3 97bd c959 93be
00000150: e4b8 94be 499b 47be bb32 a9be 35a4 47be
00000160: 6295 bdbd a6cb a3bc 2e9c 303e 3f48 813d
00000170: d8c2 8d3e 2ed9 2f3e efa4 2a3e 6e26 763e
00000180: 2138 36bc 7850 8e3e 7aa2 523d b5a6 f23d
00000190: 81fe 083d 9112 fa3d 418a 1f3d 74c8 b33d
000001a0: ca75 0a3e ab70 8b3d b61f 0a3e d18e eb3c
000001b0: 6518 dabd e85f 76be 8b41 44be 145c 81be
000001c0: 0561 2a3e ca2f 333e 6ef4 f83d 9fb8 fe3d
000001d0: 9d25 aabd cd16 45bd a2ea f2bc b865 673e
000001e0: 731e b4bd c2eb c13c 5cb5 08be 46a8 e2bd
000001f0: 87c6 63bd 4643 55be 9efd 793e d003 f13b
00000200: 2659 a2bd d2d4 3fbe 482a 23be 6020 22bc
00000210: 15cd 1b3d 4d4e 3d3d 211c 28be 43b2 84bd
00000220: 1201 163e 08ae 053e 6b9a 4e3d 87f5 a0bd
00000230: f5e9 c2be 18aa 88be d2f4 a0be 7c42 7dbe
00000240: 899e ebbd c8a5 afbd 169b 8f3f 9722 c5bf
00000250: 5cf3 793e dead 803e 35f4 863e f335 803e
00000260: 2e8e 793e 3931 a93e 2e53 c1be e754 79be
00000270: c4f8 98be e1c6 6ebe 090a b2bd aa5b 54bd
00000280: 090b 8a3f 54fc abbf 9371 503e d1e6 7b3e
00000290: b8a6 653e 4076 613e 7fb3 4a3e 43fb 983e
000002a0: f3d7 ed3d 33a7 703d e686 753d d7bc 523e
000002b0: e0f3 8ebd 0b05 033e 7afa ff3d c782 f83e
000002c0: 64ec e0bd 1af0 c9be e143 52be 7a87 6e3d
000002d0: 659e 4d3d dee5 1cbe dabd 463e a53c acbc
000002e0: 9ac2 03bd 5980 1f3e a5fd 08bc 0cf5 6f3e
000002f0: 30ee e03d 6351 903e 3cd8 e93d a1b4 36be
00000300: 2ff7 16be 9377 04be 3473 80be 47b9 71bd

model.attention.feature_attention.k_proj.bias f4 [14]
-2.4059474 -0.42969465 -0.50536686 -0.37178648 -0.3022 -0.30989847 -0.36545333 -0.17799278
-0.04756597 -0.20843948 -2.1841962 -1.9910306 0.012502489 -0.116157174
00000000: 0bfb 19c0 f000 dcbe b95f 01bf cc5a bebe
00000010: f5b9 9abe 03ab 9ebe b31c bbbe bd43 36be
00000020: 89d4 42bd 2971 55be dfc9 0bc0 17da febf
00000030: 3dd7 4c3c d0e3 edbd

model.attention.feature_attention.v_proj.weight f4 [14, 14]
0.5973551 0.44614086 0.46255758 0.45169023 0.3516636 0.34670296 0.57199186 -0.5338015
-0.17837064 -0.20750922 -0.33098173 -0.48191392 -0.57783663 -0.77632797 -0.60453534 -0.47878817
-0.48202863 -0.44042397 -0.4231561 -0.40092877 -0.579332 0.58503693 0.14735626 0.27746874
0.38675198 0.5180317 0.6512818 0.8092807 -0.59604126 -0.50495136 -0.49777183 -0.40809524
-0.34807923 -0.38462487 -0.6286534 0.64196074 0.13401666 0.22378276 0.35596475 0.5498116
0.7075447 0.82830566 -0.5802619 -0.47293317 -0.456806 -0.3597824 -0.38278025 -0.35166758
-0.50478345 0.526909 0.10167017 0.21441433 0.3222428 0.42925304 0.63344383 0.761565
-0.5554278 -0.47737423 -0.43400514 -0.445124 -0.37101364 -0.41987208 -0.56982464 0.52015847
0.07829642 0.17614949 0.38378382 0.47119 0.6173026 0.7952926 0.58996916 0.46005046
0.40899143 0.3989683 0.37338957 0.30828533 0.5365113 -0.5617451 -0.0055573094 -0.10639367
-0.2990943 -0.47444227 -0.6276992 -0.8197385 0.5165054 0.43019882 0.32099953 0.34957457
0.3044089 0.27514613 0.4630836 -0.5133601 0.0050386772 -0.13681059 -0.21720412 -0.42403325
-0.5222536 -0.7510601 0.5768894 0.55211276 0.48509735 0.44117674 0.39924398 0.38085195
0.5024992 -0.6066138 -0.48663074 -0.52881634 -0.53259856 -0.5089406 -0.44619104 -0.45964304
0.5735514 0.51215893 0.4348998 0.35677332 0.26284042 0.27329722 0.45546582 -0.5532028
-0.2981995 -0.332334 -0.38709044 -0.37591416 -0.5235836 -0.5491163 0.5981712 0.4850396
0.5112527 0.46723527 0.38766938 0.33650488 0.44584182 -0.60587275 -0.40167585 -0.42649704
-0.4497701 -0.3987329 -0.4720578 -0.5020606 -0.6124392 -0.52573836 -0.5122119 -0.4676246
-0.4225593 -0.3248702 -0.49106357 0.6502055 0.39501697 0.4001924 0.42224488 0.5269605
0.50809526 0.63567287 -0.6068554 -0.42737713 -0.4290397 -0.40234268 -0.2954608 -0.2236196
-0.48420355 0.5036151 0.29840976 0.2446845 0.34390804 0.4099179 0.5053761 0.60936934
-0.5990926 -0.48759627 -0.41404024 -0.35502294 -0.22750817 -0.19843689 -0.45540726 0.52750534
0.24172287 0.28405705 0.2988548 0.42432514 0.44465312 0.59221286 -0.55912256 -0.5149313
-0.47771865 -0.42556348 -0.25566712 -0.26244366 -0.48632783 0.5522616 0.26681635 0.31872568
0.37797046 0.38339344 0.4546851 0.56609786
00000000: 44ec 183f 936c e43e 59d4 ec3e f143 e73e
00000010: 400d b43e 0d83 b13e 0f6e 123f 37a7 08bf
00000020: cba6 36be 4c7d 54be 7076 a9be 6cbd f6be
00000030: 1aed 13bf 6ebd 46bf d4c2 1abf b923 f5be
00000040: 75cc f6be 407f e1be eba7 d8be 8946 cdbe
00000050: 1a4f 14bf fbc4 153f 8fe4 163e 6210 8e3e
00000060: 5b04 c63e ba9d 043f 67ba 263f 052d 4f3f
00000070: 2996 18bf 7e44 01bf f3db febe dcf1 d0be
00000080: 7137 b2be 8ded c4be 6eef 20bf 8a57 243f
00000090: aa3b 093e 4f27 653e 0341 b63e 74c0 0c3f
000000a0: a621 353f d70b 543f 0b8c 14bf 4c24 f2be
000000b0: 7ae2 e9be 6635 b8be c6fb c3be c60d b4be
000000c0: 7d39 01bf 82e3 063f 7338 d03d 6e8f 5b3e
000000d0: 02fd a43e 0ec7 db3e 6029 223f edf5 423f
000000e0: 8430 0ebf 656a f4be ec35 debe 4be7 e3be
000000f0: 80f5 bdbe 79f9 d6be 07e0 11bf 1b29 053f
00000100: e059 a03d 8860 343e 507f c43e d13f f13e
00000110: 8b07 1e3f 4c98 4b3f 3808 173f bc8b eb3e
00000120: 5367 d13e 9345 cc3e eb2c bf3e 93d7 9d3e
00000130: ce58 093f 87ce 0fbf 171a b6bb ede4 d9bd
00000140: e322 99be 19ea f2be e5b0 20bf 62da 51bf
00000150: b339 043f 0543 dc3e 0d5a a43e 70fb b23e
00000160: 7cdb 9b3e f4df 8c3e 4b19 ed3e 916b 03bf
00000170: 7d1b a53b 1318 0cbe c26a 5ebe e31a d9be
00000180: 69b2 05bf 7a45 40bf 06af 133f 4357 0d3f
00000190: ae5e f83e ebe1 e13e b569 cc3e 07ff c23e
000001a0: caa3 003f 0b4b 1bbf aa27 f9be 8260 07bf
000001b0: 6158 08bf ee49 02bf 2773 e4be 5556 ebbe
000001c0: 44d4 123f d91c 033f 30ab de3e feaa b63e
000001d0: 0593 863e 9ded 8b3e d132 e93e b39e 0dbf
000001e0: 9bad 98be af27 aabe b830 c6be d277 c0be
000001f0: 9309 06bf e392 0cbf bf21 193f 1c57 f83e
00000200: 75e1 023f 7639 ef3e 9a7c c63e 5e4a ac3e
00000210: 6145 e43e 7a1a 1bbf 75a8 cdbe d25d dabe
00000220: 4448 e6be b826 ccbe 8fb1 f1be 0b87 00bf
00000230: d1c8 1cbf ca96 06bf 5220 03bf 7e6c efbe
00000240: b159 d8be 6355 a6be af6c fbbe de73 263f
00000250: aa3f ca3e 05e6 cc3e 7b30 d83e e2e6 063f
00000260: 8812 023f 75bb 223f e05a 1bbf 2dd1 dabe
00000270: 17ab dbbe dcff cdbe a346 97be 89fc 64be
00000280: 87e9 f7be ebec 003f 2ac9 983e 938e 7a3e
00000290: b714 b03e c2e0 d13e 5460 013f a1ff 1b3f
000002a0: 225e 19bf 38a6 f9be 15fd d3be 91c5 b5be
000002b0: e7f7 68be 0a33 4bbe 242b e9be 970a 073f
000002c0: 3386 773e ed6f 913e 7f03 993e 2541 d93e
000002d0: 93a9 e33e 439b 173f a822 0fbf 8ad2 03bf
000002e0: 8a97 f4be 75e3 d9be cde6 82be 045f 86be
000002f0: f6ff f8be 0461 0d3f 279c 883e 0330 a33e
00000300: 5885 c13e 254c c43e 7ccc e83e caeb 103f

model.attention.feature_attention.v_proj.bias f4 [14]
-0.58801585 0.6150342 0.63772416 0.55979645 0.5893504 -0.5607354 -0.4733174 -0.5989083
-0.53087723 -0.5662799 0.62945163 0.52734995 0.51971257 0.5306284
00000000: 3588 16bf e272 1d3f e441 233f d24e 0f3f
00000010: abdf 163f 5b8c 0fbf a956 f2be 0e52 19bf
00000020: 92e7 07bf b8f7 10bf be23 213f 6800 073f
00000030: e20b 053f 43d7 073f

model.attention.feature_attention.out_proj.weight f4 [14, 14]
0.15599836 -0.18400511 -0.16158508 -0.15501302 -0.17581508 0.18424056 0.13729131 0.013099266
0.051859096 0.012152673 -0.0006944014 -0.03254142 -0.07496219 -0.033305448 0.5190133 -0.5629564
-0.5400146 -0.5520608 -0.53136075 0.49866495 0.4918286 0.54111385 0.506735 0.49157038
-0.4951582 -0.4321363 -0.46156293 -0.43024614 0.45620936 -0.55337137 -0.47146702 -0.5190886
-0.49283993 0.42605522 0.3641458 0.6085171 0.4465306 0.52202237 -0.5114341 -0.44478413
-0.44311512 -0.43906203 0.54681 -0.53600717 -0.56358916 -0.540865 -0.4680477 0.51790833
0.41814288 0.5984593 0.44726244 0.5314717 -0.57579154 -0.42466652 -0.46629703 -0.46705934
0.44474253 -0.46278492 -0.39544255 -0.42431659 -0.3809229 0.3641235 0.3692746 0.48935992
0.38769767 0.4112132 -0.4154134 -0.4124415 -0.35139537 -0.3983905 0.61894774 -0.6667653
-0.6659986 -0.6132454 -0.6614258 0.65841675 0.5853998 0.5863561 0.5869542 0.55846995
-0.6101067 -0.5675606 -0.5723707 -0.5668001 0.6749651 -0.67456055 -0.6358622 -0.6951171
-0.7088088 0.6247772 0.59008485 0.69565165 0.5965158 0.62652755 -0.65878886 -0.5627863
-0.6082952 -0.63384616 0.61575913 -0.70085746 -0.62117803 -0.644679 -0.64480436 0.7033407
0.6086772 0.5679185 0.58065116 0.565064 -0.6139742 -0.5965067 -0.54748267 -0.517802
-0.40535104 0.48017833 0.36572832 0.4242419 0.42416716 -0.40157855 -0.34798372 -0.4621199
-0.37619248 -0.35591656 0.39712077 0.3535854 0.38882595 0.3960189 -0.49838427 0.4821269
0.51017594 0.5413132 0.44240922 -0.49247405 -0.4124948 -0.40217865 -0.4552093 -0.37460217
0.47930124 0.47850093 0.48904866 0.38768083 0.3796829 -0.4258682 -0.39201832 -0.392657
-0.38956794 0.3739838 0.34659514 0.389714 0.3270948 0.3442059 -0.33358642 -0.2833136
-0.31182188 -0.34999174 -0.31181547 0.3697684 0.29376256 0.31986466 0.3335396 -0.26234788
-0.1426294 -0.48399833 -0.3016647 -0.35293454 0.4290669 0.2599717 0.28084332 0.24446368
0.367167 -0.40345278 -0.3919999 -0.3538281 -0.40377343 0.33650652 0.3178128 0.5054275
0.39897624 0.4418776 -0.42919594 -0.3187338 -0.39313012 -0.33023456 -0.40062186 0.45670387
0.39393556 0.4134109 0.42314112 -0.3719515 -0.37883714 -0.58474857 -0.40935227 -0.4330909
0.4654667 0.36936364 0.39243156 0.38565516
00000000: 09be 1f3e d66b 3cbe 8f76 25be bcbb 1ebe
00000010: de08 34be 8fa9 3c3e 1896 0c3e 4e9e 563c
00000020: 346a 543d 011c 473c 7d08 36ba 274a 05bd
00000030: c785 99bd 4b6b 08bd 0ede 043f e91d 10bf
00000040: 663e 0abf db53 0dbf 4207 08bf 0351 ff3e
00000050: f5d0 fb3e 7086 0a3f 63b9 013f 1daf fb3e
00000060: 6085 fdbe f840 ddbe fa51 ecbe 3949 dcbe
00000070: 4694 e93e bfa9 0dbf 2064 f1be fee2 04bf
00000080: 8455 fcbe e923 da3e 5171 ba3e c7c7 1b3f
00000090: a99f e43e 42a3 053f 58ed 02bf bfba e3be
000000a0: fcdf e2be bdcc e0be bdfb 0b3f c437 09bf
000000b0: 6147 10bf 2176 0abf f3a3 efbe a495 043f
000000c0: d316 d63e a134 193f 95ff e43e 880e 083f
000000d0: 1367 13bf e46d d9be 7cbe eebe 6722 efbe
000000e0: 4bb5 e33e 25f2 ecbe 7277 cabe 0640 d9be
000000f0: 5408 c3be 656e ba3e 8f11 bd3e 628d fa3e
00000100: 4f80 c63e 898a d23e 11b1 d4be 882b d3be
00000110: 18ea b3be d7f9 cbbe 5c73 1e3f 21b1 2abf
00000120: e27e 2abf a7fd 1cbf 3453 29bf 008e 283f
00000130: c3dc 153f 6f1b 163f a142 163f e3f7 0e3f
00000140: f42f 1cbf a74b 11bf e386 12bf d019 11bf
00000150: 83ca 2c3f 00b0 2cbf ddc7 22bf 32f3 31bf
00000160: 7e74 35bf 66f1 1f3f cd0f 173f 3a16 323f
00000170: 42b5 183f 1c64 203f 63a6 28bf c312 10bf
00000180: 3cb9 1bbf be43 22bf 64a2 1d3f 656b 33bf
00000190: 8605 1fbf af09 25bf e611 25bf 230e 343f
000001a0: 45d2 1b3f 1b63 113f 8ea5 143f 09a8 103f
000001b0: 6a2d 1dbf aab4 18bf d327 0cbf ac8e 04bf
000001c0: 2c8a cfbe efd9 f53e be40 bb3e 3c36 d93e
000001d0: 702c d93e b49b cdbe ec2a b2be fb9a ecbe
000001e0: 4d9c c0be b23a b6be 6a53 cb3e 2509 b53e
000001f0: 3214 c73e fdc2 ca3e 392c ffbe 56d9 f63e
00000200: e49a 023f 8093 0a3f 7683 e23e 8f25 fcbe
00000210: 8532 d3be 5cea cdbe 3211 e9be dbcb bfbe
00000220: f966 f53e 13fe f43e 9664 fa3e 1a7e c63e
00000230: cc65 c23e 660b dabe a0b6 c8be 570a c9be
00000240: 7375 c7be ce7a bf3e eb74 b13e 9888 c73e
00000250: f878 a73e c13b b03e d7cb aabe 7b0e 91be
00000260: 1ea7 9fbe 1e32 b3be 47a6 9fbe 4952 bd3e
00000270: 0c68 963e 4dc5 a33e b4c5 aa3e 7652 86be
00000280: 710d 12be a1ce f7be cc73 9abe d6b3 b4be
00000290: a8ae db3e 031b 853e b2ca 8f3e b054 7a3e
000002a0: 50fd bb3e 5d91 cebe 36b4 c8be f528 b5be
000002b0: 64bb cebe 954a ac3e 5cb8 a23e b263 013f
000002c0: 9d46 cc3e c83d e23e 92bf dbbe 1431 a3be
000002d0: 5a48 c9be 8114 a9be 4f1e cdbe 17d5 e93e
000002e0: ecb1 c93e 98aa d33e f4a5 d83e 6d70 bebe
000002f0: f1f6 c1be 15b2 15bf 9f96 d1be 17be ddbe
00000300: a751 ee3e 3b1d bd3e caec c83e 9874 c53e

model.attention.feature_attention.out_proj.bias f4 [14]
-0.00040420095 -0.20996892 -0.070524685 -0.13548027 -0.09502955 -0.25296694 -0.3895695 -0.16211827
0.07267804 0.0935101 -0.060546167 -0.08591137 -0.06198154 -0.03152454
00000000: efea d3b9 1802 57be 3f6f 90bd 57bb 0abe
00000010: da9e c2bd e284 81be a775 c7be 5502 26be
00000020: 39d8 943d 3982 bf3d 42ff 77bd 4df2 afbd
00000030: 5be0 7dbd e01f 01bd

model.attention.norm1.weight f4 [6]
1.8833671 2.0134184 1.6719503 2.6359875 1.9606276 2.220903
00000000: 2c12 f13f d9db 0040 7802 d63f 05b4 2840
00000010: d8f5 fa3f 4623 0e40

model.attention.norm1.bias f4 [6]
-0.99838185 1.1142422 -0.08898322 1.0982332 1.1880372 -1.0707664
00000000: f495 7fbf 7d9f 8e3f d63c b6bd e892 8c3f
00000010: 9a11 983f e00e 89bf

model.attention.norm2.weight f4 [14]
1.7858527 1.674282 1.5912123 1.5654682 1.4640229 1.4727004 0.052346926 -0.023505757
1.3569812 1.461432 1.5545923 1.6482124 1.749953 1.9225473
00000000: d296 e43f df4e d63f d8ac cb3f 4361 c83f
00000010: 1a65 bb3f 7281 bc3f bb69 563d 258f c0bc
00000020: 8fb1 ad3f 3410 bb3f e1fc c63f a0f8 d23f
00000030: 76fe df3f 0816 f63f

model.attention.norm2.bias f4 [14]
-0.23545791 -0.5274844 -0.3261433 -0.2755121 -0.4005716 -0.49765182 -1.3729227 1.7067901
0.4891988 0.38198584 0.3617766 0.34046307 0.34605494 0.3001825
00000000: e11b 71be 3809 07bf 41fc a6be ec0f 8dbe
00000010: b917 cdbe 38cc febe eebb afbf 1978 da3f
00000020: 4478 fa3e a693 c33e c83a b93e 2d51 ae3e
00000030: 1d2e b13e 85b1 993e

model.Linear.0.weight f4 [1, 14]
0.23436597 0.36841333 0.34287128 0.44550687 0.41326392 0.5264545 0.6704155 0.6916169
-0.027598213 0.13432236 0.35659322 0.2596435 0.30301365 0.14291985
00000000: a2fd 6f3e aca0 bc3e d38c af3e 7a19 e43e
00000010: 5497 d33e b9c5 063f 5aa0 2b3f ce0d 313f
00000020: a615 e2bc cd8b 093e 6393 b63e feef 843e
00000030: 9b24 9b3e 9559 123e

model.Linear.1.weight f4 [1, 14]
0.029218286 0.017427655 0.025090031 0.057372034 0.106483 -0.032555684 -0.0070823887 -0.039269127
-0.0067329826 0.064047605 0.041049633 -0.031823903 0.054498244 -0.022417033
00000000: 305b ef3c 71c4 8e3c 9c89 cd3c f0fe 6a3d
00000010: c213 da3d 1c59 05bd 6213 e8bb aad8 20bd
00000020: 5aa0 dcbb 642b 833d a923 283d c859 02bd
00000030: 8d39 5f3d eda3 b7bc

model.Linear.2.weight f4 [1, 14]
0.011822956 0.0059685176 0.03419072 -0.023540052 -0.03161133 -0.018271448 0.023210224 0.004507573
-0.016893266 -0.024914294 -0.017240262 0.011393731 0.023327854 0.039792594
00000000: 12b5 413c 8e93 c33b 920b 0c3d 11d7 c0bc
00000010: e27a 01bd 01ae 95bc 5e23 be3c 43b4 933b
00000020: bf63 8abc 1019 ccbc 733b 8dbc c6ac 3a3c
00000030: 0e1a bf3c 8ffd 223d

model.Linear.3.weight f4 [1, 14]
-0.14454891 -0.058600668 0.015462274 0.05978197 0.048099093 -0.021715065 0.023489367 -0.05709269
-0.015255805 0.020799214 0.02904965 -0.0067212502 8.66489e-05 0.022044895
00000000: a104 14be 4107 70bd 7a55 7d3c f0dd 743d
00000010: 8e03 453d cbe3 b1bc c66c c03c 06da 69bd
00000020: 7cf3 79bc 1d63 aa3c 88f9 ed3c ef3d dcbb
00000030: 46b7 b538 7f97 b43c

model.Linear.4.weight f4 [1, 14]
-0.06146149 -0.00014137685 0.050190218 -0.04832024 -0.008965626 -0.06456864 -0.039421145 -0.065937474
0.03462519 0.014771083 -0.09360081 -0.014203519 -0.01455201 -0.0155141
00000000: 0bbf 7bbd 8f3e 14b9 4294 4d3d 72eb 45bd
00000010: 90e4 12bc 903c 84bd 1178 21bd 3a0a 87bd
00000020: 25d3 0d3d 6a02 723c c8b1 bfbd e0b5 68bc
00000030: 8e6b 6ebc da2e 7ebc

model.Linear.5.weight f4 [1, 14]
0.05512279 0.030147152 0.035209686 0.030186111 0.04142283 0.015377367 0.008790923 0.013997398
0.11834241 0.1198655 0.03848385 0.104184076 0.042367116 0.11948223
00000000: 6fc8 613d 29f7 f63c 0838 103d dd48 f73c
00000010: fcaa 293d 5af1 7b3c ce07 103c 5855 653c
00000020: 815d f23d 0b7c f53d 3ea1 1d3d 765e d53d
00000030: 2489 2d3d 19b3 f43d

model.projector.weight f4 [1, 6]
-3.078375e-09 0.3097001 0.22569521 0.26735893 0.18966748 0.23956965
00000000: 598b 53b1 0391 9e3e a51c 673e 45e3 883e
00000010: 3138 423e bf51 753e

exp_avg f4 [1, 1, 6]
-32073.12 -80.15915 -162.7795 301.549 -276.91284 70.919304
00000000: 3d92 fac6 7c51 a0c2 8dc7 22c3 46c6 9643
00000010: d874 8ac3 afd6 8d42

exp_avg_sq f4 [1, 1, 6]
1.5777672e+10 1.9466652e+06 183839.9 454988.25 4.356158e+06 116365.836
00000000: 0b1b 6b50 4aa1 ed49 fa87 3348 8829 de48
00000010: 7cf0 844a eb46 e347

exp_avg f4 [1, 1, 6]
-179.19023 81.76763 -74.89288 686.2581 -189.75566 -260.77945
00000000: b330 33c3 0789 a342 28c9 95c2 8590 2b44
00000010: 73c1 3dc3 c563 82c3

exp_avg_sq f4 [1, 1, 6]
950262.3 93794.76 141700.45 3.9607425e+06 251044.11 350303.34
00000000: 65ff 6749 6131 b747 1d61 0a48 9abe 714a
00000010: 0729 7548 eb0b ab48

exp_avg f4 [6, 6]
10.216898 -12.920924 -5.370141 -0.19057062 -1.3439207 9.859121 -15.262941 13.321532
19.533007 30.698124 -35.89483 -19.07152 -0.87135017 -1.1506351 -1.8918289 -11.157924
14.754857 2.5320761 -0.14138305 -4.972855 2.4970236 2.9624414 2.7633393 -2.7134206
8.501248 1.8535236 -4.7994037 0.11878422 -20.625961 11.201192 -4.1882434 0.27815062
2.6081004 -2.4704518 6.917071 -2.169555
00000000: 6a78 2341 1bbc 4ec1 32d8 abc0 f224 43be
00000010: 9805 acbf f6be 1d41 0235 74c1 ff24 5541
00000020: 9943 9c41 c295 f541 4e94 0fc2 7992 98c1
00000030: ce10 5fbf 0348 93bf 7327 f2bf db86 32c1
00000040: e513 6c41 890d 2240 b8c6 10be a121 9fc0
00000050: 3ccf 1f40 a498 3d40 8dda 3040 afa8 2dc0
00000060: 1d05 0841 4340 ed3f b794 99c0 2445 f33d
00000070: f801 a5c1 1538 3341 1706 86c0 c269 8e3e
00000080: 1eeb 2640 e21b 1ec0 a558 dd40 fdd9 0ac0

exp_avg_sq f4 [6, 6]
27455.535 46907.05 16288.298 16434.615 12230.857 97021.695 92538.5 39766.117
393070.6 98882.34 261562.44 60327.78 28422.582 20775.506 80123.82 36909.633
71303.52 12597.913 1313.1011 979.5216 5264.349 1267.6013 3606.9998 876.71405
23020.047 3501.0103 40656.117 22674.596 34844.29 3548.326 14513.57 1401.4481
22171.074 13028.738 21533.533 393.09598
00000000: 127f d646 0d3b 3747 3181 7e46 3b65 8046
00000010: 6e1b 3f46 d97e bd47 40bd b447 1e56 1b47
00000020: d3ed bf48 2c21 c147 9c6e 7f48 c8a7 6b47
00000030: 2a0d de46 034f a246 e97d 9c47 a22d 1047
00000040: c343 8b47 a7d7 4446 3c23 a444 62e1 7444
00000050: cb82 a445 3e73 9e44 ff6f 6145 b32d 5b44
00000060: 18d8 b346 2ad0 5a45 1ed0 1e47 3125 b146
00000070: 4a1c 0847 37c5 5d45 48c6 6246 572e af44
00000080: 2636 ad46 f492 4b46 113b a846 498c c443

exp_avg f4 [6]
-1.017415 -9.909789 4.43847 0.5094698 -5.610716 2.1273649
00000000: a83a 82bf 7f8e 1ec1 f207 8e40 9d6c 023f
00000010: fc8a b3c0 bf26 0840

exp_avg_sq f4 [6]
1102.3312 25071.367 8458.891 489.6998 4735.06 3065.5647
00000000: 99ca 8944 bcde c346 902b 0446 93d9 f443
00000010: 7bf8 9345 0999 3f45

exp_avg f4 [6, 6]
-47.91617 51.28176 -11.994499 -13.344013 66.310524 -39.513035 14.81011 9.52228
-38.18342 -43.540337 32.0322 44.684887 -36.39717 -72.90045 144.19661 130.16402
-155.42142 -65.75015 1.9295956 2.4785423 -6.6998963 -2.947666 7.7385163 0.1700828
3.2856796 5.658379 -13.174879 -14.425347 23.155382 1.3082877 -28.28278 -70.96024
102.25129 39.692368 -98.15 17.098488
00000000: 28aa 3fc2 8620 4d42 78e9 3fc1 1481 55c1
00000010: fd9e 8442 590d 1ec2 36f6 6c41 425b 1841
00000020: d2bb 18c2 4e29 2ec2 f920 0042 53bd 3242
00000030: b496 11c2 08cd 91c2 5532 1043 fd29 0243
00000040: e26b 1bc3 1480 83c2 fdfc f63f 70a0 1e40
00000050: 8d65 d6c0 8fa6 3cc0 eda1 f740 2f2a 2e3e
00000060: 9348 5240 7111 b540 4ecc 52c1 39ce 66c1
00000070: 393e b941 f975 a73f 2243 e2c1 a5eb 8dc2
00000080: a980 cc42 fcc4 1e42 cd4c c4c2 b4c9 8841

exp_avg_sq f4 [6, 6]
505552.03 356119.7 2.3378795e+06 1.1876312e+06 1.00319594e+06 1.0607042e+06 197522.67 152293.28
751619.1 420143.4 305411.53 420594.53 133791.66 166964.97 252053.86 250377.3
313124.8 150604.89 5113.922 46705.523 59402.395 25081.945 65404.75 4125.6084
5299.535 1928.4678 5007.418 46172.367 44888.664 1536.468 13768.076 131793.62
196439.78 136491.48 325228.44 13598.301
00000000: 01da f648 f6e2 ad48 5eb1 0e4a 7af9 9049
00000010: bfeb 7449 027b 8149 abe4 4048 52b9 1448
00000020: 3280 3749 ed25 cd48 7120 9548 515e cd48
00000030: eaa7 0248 3e0d 2348 7725 7648 5382 7448
00000040: 9ae4 9848 3913 1348 60cf 9f45 8671 3647
00000050: 650a 6847 e4f3 c346 c07c 7f47 deec 8045
00000060: 489c a545 f80e f144 587b 9c45 5e5c 3447
00000070: aa58 2f47 fa0e c044 4e20 5746 68b4 0048
00000080: f2d5 3f48 df4a 0548 8ecd 9e48 3479 5446

exp_avg f4 [6]
7.4534435 19.003614 -56.412605 2.262068 7.056613 -32.18447
00000000: 9c82 ee40 6707 9841 82a6 61c2 b9c5 1040
00000010: c6cf e140 e6bc 00c2

exp_avg_sq f4 [6]
152033.31 48715.414 31917.19 7796.7764 5658.356 32476.094
00000000: 5478 1448 6a4b 3e47 615a f946 36a6 f345
00000010: d9d2 b045 30b8 fd46

exp_avg f4 [6, 6]
73.009346 -114.33377 60.53538 -35.90934 -168.4071 133.72707 72.05493 -113.119965
59.70276 -35.63043 -166.58122 132.77376 -72.288086 113.68898 -59.6562 35.929626
167.21715 -133.92311 83.40278 -107.91048 26.221523 -42.373474 -152.70366 151.5809
-83.71216 108.36303 -26.23642 42.514774 153.22337 -152.24057 82.11601 -106.30569
25.721489 -41.702927 -150.29366 149.3561
00000000: c904 9242 e4aa e4c2 3b24 7242 2aa3 0fc2
00000010: 3868 28c3 21ba 0543 201c 9042 6c3d e2c2
00000020: a0cf 6e42 8f85 0ec2 cb94 26c3 15c6 0443
00000030: 8093 90c2 c260 e342 f39f 6ec2 f0b7 0f42
00000040: 9737 2743 51ec 05c3 39ce a642 2ad2 d7c2
00000050: aec5 d141 707e 29c2 23b4 18c3 b694 1743
00000060: a06c a7c2 dfb9 d842 30e4 d1c1 210f 2a42
00000070: 2f39 1943 963d 18c3 663b a442 839c d4c2
00000080: 9cc5 cd41 cccf 26c2 2d4b 16c3 295b 1543

exp_avg_sq f4 [6, 6]
38453.965 195651.1 47477.94 34049.094 320861.75 355847.94 36506.992 185903.88
45174.273 32344.352 305044.6 338118.94 35725.344 181998.78 44238.7 31663.684
298718.34 331056.25 69174.5 161155.72 8902.473 27008.59 247749.17 299032.94
68953.2 160645.19 8872.315 26927.611 246955.73 298110.7 66219.09 154275.03
8520.1875 25859.953 237162.72 286294.1
00000000: f735 1647 c610 3f48 f175 3947 1801 0547
00000010: b8ab 9c48 fec0 ad48 fe9a 0e47 f88b 3548
00000020: 4676 3047 b4b0 fc46 93f2 9448 de18 a548
00000030: 588d 0b47 b2bb 3148 b3ce 2c47 5e5f f746
00000040: cbdb 9148 08a6 a148 401b 8747 ee60 1d48
00000050: e419 0b46 2e01 d346 4bf1 7148 1e03 9248
00000060: 9aac 8647 4ce1 1c48 43a1 0a46 395f d246
00000070: ef2a 7148 d68f 9148 8c55 8147 c2a8 1648
00000080: c020 0546 e807 ca46 ae9a 6748 c3ca 8b48

exp_avg f4 [6]
-41.345806 -40.942795 41.152374 -37.83338 37.97666 -37.253155
00000000: 1b62 25c2 6cc5 23c2 089c 2442 6255 17c2
00000010: 1ae8 1742 3b03 15c2

exp_avg_sq f4 [6]
24015.033 22825.988 22351.318 18460.543 18402.105 17672.273
00000000: 119e bb46 fa53 b246 a39e ae46 1639 9046
00000010: 36c4 8f46 8c10 8a46

exp_avg f4 [6, 6]
471.03217 488.74564 -486.1914 518.82526 -522.38043 529.5402 93.90534 97.793495
-97.436325 101.54173 -102.275276 103.9116 3.675913 3.829948 -3.814543 3.878996
-3.9050975 3.9668696 -39.680695 -41.302376 41.163692 -43.63886 43.9727 -44.670517
-84.06833 -87.52286 87.21829 -91.87041 92.55173 -94.03026 0.09841592 0.067097716
-0.062534176 0.00090818317 -0.0014409127 0.0011792314
00000000: 1e84 eb43 715f f443 8018 f3c3 d1b4 0144
00000010: 5998 02c4 9362 0444 89cf bb42 4596 c342
00000020: 66df c2c2 5e15 cb42 f18c ccc2 bdd2 cf42
00000030: 2942 6b40 de1d 7540 7921 74c0 7841 7840
00000040: 1eed 79c0 31e1 7d40 08b9 1ec2 a235 25c2
00000050: 9fa7 2442 318e 2ec2 0be4 2f42 9cae 32c2
00000060: fc22 a8c2 b40b afc2 c46f ae42 a6bd b7c2
00000070: 7c1a b942 7e0f bcc2 498e c93d 876a 893d
00000080: eb11 80bd 2413 6e3a 02dd bcba 7190 9a3a

exp_avg_sq f4 [6, 6]
3.5498412e+06 3.8980022e+06 3.8731238e+06 3.6528192e+06 3.692205e+06 3.804606e+06 345100.9 378896.1
376509.1 356691.84 360180.1 371627.16 440.59106 487.68695 485.3323 459.1393
462.54648 477.60834 52507.95 57683.406 57331.98 54707.12 55235.35 56997.277
250917.16 275082.6 273282.7 259403.48 262113.84 270379.28 12.64716 13.383473
13.555813 10.385351 11.714079 11.308167
00000000: 45aa 584a 49ea 6d4a 8f65 6c4a 4df3 5e4a
00000010: b45a 614a f836 684a 9d81 a848 0302 b948
00000020: a3d7 b748 7b2a ae48 83de af48 6575 b548
00000030: a84b dc43 eed7 f343 89aa f243 d591 e543
00000040: f345 e743 decd ee43 f31b 4d47 6853 6147
00000050: fbf3 5f47 1fb3 5547 5ac3 5747 47a5 5e47
00000060: 4a09 7548 5351 8648 5670 8548 df52 7d48
00000070: 76f8 7f48 6905 8448 c45a 4a41 b522 5641
00000080: 9ce4 5841 662a 2641 de6c 3b41 41ee 3441

exp_avg f4 [6]
-34.932117 -6.7664576 -0.2645536 2.881524 6.1015496 -0.00061222876
00000000: 7dba 0bc2 d286 d8c0 9273 87be e46a 3840
00000010: e53f c340 fa7d 20ba

exp_avg_sq f4 [6]
17640.81 1688.3046 2.2940898 257.98438 1226.8582 0.0002352296
00000000: 9fd1 8946 bf09 d344 5ed2 1240 00fe 8043
00000010: 765b 9944 f7a7 7639

exp_avg f4 [14, 14]
-9.34243 -9.14278 -1.947374 -7.088675 -6.08802 -6.341091 -4.9798555 6.249035
6.4643216 2.2772892 2.8685014 12.67675 5.3473163 14.252782 39.429886 38.775696
27.20911 28.223715 17.73427 16.81309 13.969989 -17.28922 -14.398826 -14.255251
-20.362204 -39.55393 -35.431698 -46.40679 -26.657934 -21.101542 -6.7510195 -9.867768
26.755466 2.2664464 17.402618 -21.779455 -12.329383 -4.946969 -4.583686 10.596531
40.91088 29.424479 12.37697 8.427739 1.788443 5.124088 -1.3893839 4.7965493
-2.9387438 3.5719936 1.0103474 -3.810601 -1.7705103 -7.924026 -9.557028 -10.276289
13.178437 8.186029 -0.39370677 3.3565807 -4.611279 7.7692294 -6.738018 8.3129
4.03011 -3.8472717 -1.6642101 -8.42859 -12.022516 -13.907196 19.70188 14.720153
0.5635578 5.9172287 -3.2139888 6.338098 -3.8617513 4.734265 0.973625 -4.959121
-1.4926476 -11.522023 -17.398237 -17.592714 -4.997113 -6.984478 -1.2416122 -2.9998505
2.3970842 -4.509491 5.595878 -7.0623527 -4.0060825 1.1591733 1.8622915 6.629878
9.504205 12.638673 2.1648724 1.899166 0.8028154 2.6407762 0.46717593 1.057524
0.7315606 -1.0015638 -1.6806587 -1.6729077 -0.41801074 -2.4227211 -1.5737287 -0.5375766
14.82972 7.8870897 8.317637 13.575946 8.282769 6.5450797 7.001937 -9.183444
-8.200992 -3.9839854 -3.6404836 -12.256193 -11.685417 -20.084084 166.35974 145.82396
110.86932 85.92856 67.084816 51.004417 70.87341 -87.61803 -56.47139 -64.41433
-87.719475 -114.16091 -140.26726 -175.41176 -23.95974 -19.097166 -13.085697 -18.061996
-9.426399 -8.908777 -10.265832 13.054685 9.378039 9.925088 11.1189 19.804468
17.63753 22.460283 -19.312664 -16.981522 -10.133312 -15.852833 -6.7894006 -10.267769
-8.882021 11.284495 6.650594 9.082326 9.348639 17.795723 17.87368 19.805893
63.086205 55.871967 38.28024 38.21952 21.158964 19.005756 26.393486 -33.14767
-20.778566 -18.275898 -28.922367 -47.617393 -53.032112 -61.754246 8.133053 8.563778
5.946324 10.835605 1.0296724 6.454253 -2.4043548 2.843674 -9.6881075 -8.209983
-1.8093511 -6.05048 -1.7790138 -1.0534266
00000000: 987a 15c1 d448 12c1 8d43 f9bf 6dd6 e2c0
00000010: 0fd1 c2c0 38ea cac0 fa5a 9fc0 18f8 c740
00000020: b9db ce40 1bbf 1140 8795 3740 f8d3 4a41
00000030: 371d ab40 650b 6441 34b8 1d42 501a 1b42
00000040: 42ac d941 2bca e141 c9df 8d41 3581 8641
00000050: 1385 5f41 5350 8ac1 9761 66c1 8215 64c1
00000060: cbe5 a2c1 3937 1ec2 0fba 0dc2 8ea0 39c2
00000070: 7343 d5c1 f5cf a8c1 5a08 d8c0 61e2 1dc1
00000080: 320b d641 750d 1140 9038 8b41 533c aec1
00000090: 2745 45c1 924d 9ec0 8ead 92c0 648b 2941
000000a0: bea4 2342 5565 eb41 1208 4641 05d8 0641
000000b0: b3eb e43f 87f8 a340 55d7 b1bf 557d 9940
000000c0: 6114 3cc0 8b9b 6440 1053 813f e3e0 73c0
000000d0: 15a0 e2bf 9f91 fdc0 96e9 18c1 ae6b 24c1
000000e0: e1da 5241 faf9 0241 ef93 c9be 38d2 5640
000000f0: 998f 93c0 879d f840 d89d d7c0 a301 0541
00000100: a9f6 8040 b339 76c0 d604 d5bf 81db 06c1
00000110: 3a5c 40c1 e083 5ec1 739d 9d41 bf85 6b41
00000120: 5345 103f f059 bd40 feb1 4dc0 b3d1 ca40
00000130: ef26 77c0 197f 9740 7d3f 793f 1fb1 9ec0
00000140: 140f bfbf 355a 38c1 972f 8bc1 e1bd 8cc1
00000150: 5ae8 9fc0 d880 dfc0 26ed 9ebf 8dfd 3fc0
00000160: d469 1940 c04d 90c0 6f11 b340 cbfe e1c0
00000170: d431 80c0 ca5f 943f 915f ee3f f627 d440
00000180: 3911 1841 0138 4a41 458d 0a40 df17 f33f
00000190: 4f85 4d3f 7a02 2940 af31 ef3e f25c 873f
000001a0: 8e47 3b3f 3e33 80bf d31f d7bf d721 d6bf
000001b0: 8105 d6be dd0d 1bc0 f16f c9bf 9f9e 09bf
000001c0: 8846 6d41 0a63 fc40 0b15 0541 1337 5941
000001d0: 3986 0441 4b71 d140 de0f e040 63ef 12c1
000001e0: 4337 03c1 9ef9 7ec0 affd 68c0 5e19 44c1
000001f0: 78f7 3ac1 34ac a0c1 185c 2643 efd2 1143
00000200: 18bd dd42 6cdb ab42 6d2b 8642 8604 4c42
00000210: 30bf 8d42 6e3c afc2 b4e2 61c2 23d4 80c2
00000220: 5f70 afc2 6352 e4c2 6b44 0cc3 6969 2fc3
00000230: 8cad bfc1 ffc6 98c1 045f 51c1 f87e 90c1
00000240: 88d2 16c1 5a8a 0ec1 d940 24c1 fddf 5041
00000250: 730c 1641 29cd 1e41 04e7 3141 8d6f 9e41
00000260: a919 8d41 a9ae b341 5680 9ac1 28da 87c1
00000270: 0c22 22c1 34a5 7dc1 c542 d9c0 c848 24c1
00000280: c21c 0ec1 4b8d 3441 abd1 d440 3551 1141
00000290: 0694 1541 a45d 8e41 4cfd 8e41 7872 9e41
000002a0: 4658 7c42 e57c 5f42 f71e 1942 cae0 1842
000002b0: 8f45 a941 ca0b 9841 dc25 d341 3797 04c2
000002c0: 813a a6c1 0a35 92c1 0261 e7c1 3678 3ec2
000002d0: e220 54c2 5904 77c2 fc20 0241 3c05 0941
000002e0: 4948 be40 a35e 2d41 4ecc 833f 3e89 ce40
000002f0: f3e0 19c0 c1fe 3540 7d02 1bc1 175c 03c1
00000300: d198 e7bf 889d c1c0 b9b6 e3bf afd6 86bf

exp_avg_sq f4 [14, 14]
11679.812 8766.159 5139.559 3223.3904 2132.314 1293.7344 2018.5276 3077.8801
1945.6444 3233.4492 3801.9255 4745.0024 6458.906 6769.3633 65881.61 49008.74
26606.477 15784.218 9539.308 5321.2246 10584.826 16209.005 8760.752 13531.437
19285.275 24784.678 36163.402 49700.094 6230.0063 3043.8232 3078.5117 2689.7107
1799.9153 1751.4338 1821.223 2746.5828 1455.1768 1183.0942 1952.6256 3235.9075
4353.4155 7456.401 1238.1456 679.0302 501.54965 367.8099 250.63506 236.04105
293.19598 435.361 161.8387 207.69669 331.88336 450.66727 604.6648 782.31006
2499.8423 1307.2736 997.42084 701.73474 460.76526 441.3328 601.4734 904.64417
331.55286 348.19138 660.6159 826.292 971.14874 1134.3756 4791.0156 2844.3655
1789.4347 1226.7429 857.5753 781.3564 948.2816 1413.3116 584.7926 769.3482
1204.8759 1642.0701 2397.523 3014.4448 1493.0537 852.0294 833.2193 671.54706
395.0225 364.61832 557.2017 839.4086 312.61176 301.21255 564.52295 871.0461
1381.7021 2414.9934 237.85829 150.97401 96.03792 84.44729 60.988285 53.54795
50.437767 67.48353 57.131668 59.80839 65.99119 74.5031 100.67667 183.10002
5158.631 4108.0063 2425.2676 1679.7904 1347.3673 1276.5718 1069.9642 1597.7457
887.0597 1088.4034 1838.2495 2335.4377 3769.329 5731.5405 240442.44 195996.72
110162.5 65875.76 42335.92 26360.234 44570.7 66920.6 25825.123 42203.26
72970.03 115778.69 179419.02 274223.38 4981.7783 3987.5396 2259.47 1392.0055
941.2367 648.1914 911.5233 1356.1724 708.32434 1015.8123 1532.57 2276.442
3403.406 5095.035 3493.523 2771.4995 1615.3706 1005.91266 670.09094 468.06302
656.91315 958.1129 476.03473 667.8398 1094.717 1572.5137 2406.444 3554.8174
26495.85 21029.201 11856.001 7027.9106 4412.763 2553.2397 4596.467 6974.73
3497.375 5089.243 7574.034 11246.862 17478.814 25489.188 384.91995 282.62692
358.79785 222.45366 144.34651 119.24179 111.696785 169.5203 168.795 186.1536
181.75279 164.49316 203.72014 529.68176
00000000: 3f7f 3646 a3f8 0846 799c a045 3f76 4945
00000010: 0645 0545 80b7 a144 e250 fc44 155e 4045
00000020: 9f34 f344 3017 4a45 cf9e 6d45 0548 9445
00000030: 3fd7 c945 e88a d345 ceac 8047 bd70 3f47
00000040: f4dc cf46 dfa0 7646 3b0d 1546 cc49 a645
00000050: 4e63 2546 0544 7d46 02e3 0846 bf6d 5346
00000060: 8daa 9646 5ba1 c146 6743 0d47 1824 4247
00000070: 0db0 c245 2c3d 3e45 3068 4045 5f1b 2845
00000080: 4afd e044 e2ed da44 23a7 e344 53a9 2b45
00000090: a8e5 b544 04e3 9344 0514 f444 853e 4a45
000000a0: 530b 8845 3503 e945 a9c4 9a44 efc1 2944
000000b0: 5bc6 fa43 abe7 b743 93a2 7a43 820a 6c43
000000c0: 1699 9243 35ae d943 b5d6 2143 5ab2 4f43
000000d0: 12f1 a543 6955 e143 8c2a 1744 d893 4344
000000e0: 7a3d 1c45 c168 a344 ef5a 7944 066f 2f44
000000f0: f461 e643 99aa dc43 4c5e 1644 3a29 6244
00000100: c4c6 a543 7f18 ae43 6b27 2544 b092 4e44
00000110: 85c9 7244 05cc 8d44 20b8 9545 d9c5 3145
00000120: e9ad df44 c657 9944 d264 5644 cf56 4344
00000130: 0612 6d44 f9a9 b044 ba32 1244 4956 4044
00000140: 079c 9644 3e42 cd44 5ed8 1545 1e67 3c45
00000150: b8a1 ba44 e201 5544 094e 5044 03e3 2744
00000160: e182 c543 254f b643 e94c 0b44 27da 5144
00000170: 4e4e 9c43 359b 9643 7821 0d44 f3c2 5944
00000180: 78b6 ac44 e5ef 1645 b9db 6d43 59f9 1643
00000190: 6a13 c042 03e5 a842 01f4 7342 1a31 5642
000001a0: 46c0 4942 91f7 8642 d486 6442 cb3b 6f42
000001b0: 7dfb 8342 9601 9542 745a c942 9b19 3743
000001c0: 0c35 a145 0d60 8045 4894 1745 4bf9 d144
000001d0: c16b a844 4c92 9f44 dbbe 8544 ddb7 c744
000001e0: d2c3 5d44 e90c 8844 fcc7 e544 01f7 1145
000001f0: 4495 6b45 531c b345 9cce 6a48 2e67 3f48
00000200: 4029 d747 e1a9 8047 ec5f 2547 78f0 cd46
00000210: b31a 2e47 4db4 8247 3fc2 c946 43db 2447
00000220: 0485 8e47 5821 e247 c136 2f48 ece5 8548
00000230: 3aae 9b45 a238 7945 8537 0d45 2d00 ae44
00000240: 264f 6b44 400c 2244 7ee1 6344 8485 a944
00000250: c214 3144 fdf3 7d44 3d92 bf44 1247 0e45
00000260: 7fb6 5445 4838 9f45 5e58 5a45 fe37 2d45
00000270: dceb c944 697a 7b44 d285 2744 1108 ea43
00000280: 713a 2444 3a87 6f44 7204 ee43 bff5 2644
00000290: f2d6 8844 7090 c444 1b67 1645 142d 5e45
000002a0: b3ff ce46 674a a446 0140 3946 499f db45
000002b0: 1be6 8945 d693 1f45 bca3 8f45 d7f5 d945
000002c0: 0096 5a45 f209 9f45 46b0 ec45 73bb 2f46
000002d0: a18d 8846 6022 c746 c175 c043 3f50 8d43
000002e0: 2066 b343 2374 5e43 b558 1043 cc7b ee42
000002f0: c164 df42 3285 2943 85cb 2843 5227 3a43
00000300: b7c0 3543 407e 2443 5bb8 4b43 a26b 0444

exp_avg f4 [14]
3.6335995 -10.149673 -12.848713 2.1050677 4.914947 2.8209476 -4.1587486 -0.57505685
-5.3171105 -51.39057 7.6218815 6.575559 -19.423594 1.6255007
00000000: e58c 6840 1065 22c1 5494 4dc1 6eb9 0640
00000010: 3f47 9d40 688a 3440 7814 85c0 ed36 13bf
00000020: c525 aac0 f28f 4dc2 74e6 f340 fb6a d240
00000030: 8563 9bc1 6810 d03f

exp_avg_sq f4 [14]
1098.9432 5762.533 1004.60657 158.17903 323.14862 509.76837 309.02753 25.475096
566.33575 24130.693 490.86258 352.92978 2503.8345 60.44547
00000000: 2f5e 8944 4414 b445 d226 7b44 d52d 1e43
00000010: 0693 a143 5ae2 fe43 8683 9a43 ffcc cb41
00000020: 7d95 0d44 6385 bc46 696e f543 0377 b043
00000030: 5a7d 1c45 29c8 7142

exp_avg f4 [14, 14]
-28.899038 -22.293974 -25.411324 -22.707521 -39.21751 -17.097517 -17.428493 21.841242
0.43207657 15.533449 32.82638 44.840073 42.0423 49.155304 13.480905 17.945463
11.791041 1.0297859 -11.210481 -9.507214 1.2389127 -1.5351769 7.7467904 1.312293
-5.1016474 -15.066669 -13.899864 -4.4692235 12.797487 14.181492 12.731051 9.397537
4.719513 0.6676336 8.370076 -10.293133 -1.0193101 -3.885268 -7.263385 -14.687453
-16.82798 -11.255329 15.8863325 15.876112 13.367759 7.21244 2.274317 -2.894974
-8.4489 10.639514 4.065158 -1.7334452 -6.382889 -14.091267 -19.886469 -23.23841
27.05141 22.158272 17.286306 9.373618 1.5943775 -2.3194256 -15.333091 19.225925
4.5156093 -2.9837544 -10.240159 -18.320992 -26.925816 -33.601025 25.637634 23.544863
17.65006 6.5035377 -0.34111637 -6.790337 -12.705569 15.9180155 7.099093 -2.2285388
-7.09336 -15.760417 -25.608418 -33.33927 8.671642 6.661439 6.1743426 4.6049747
3.8550704 3.6671512 1.5403795 -1.7841635 -1.5095205 -3.3877077 -5.59105 -9.303491
-9.255128 -7.460763 0.91968167 0.8938645 0.9493856 0.56213474 0.20008183 1.3317777
1.1308389 -1.3984507 -0.5414016 -0.725386 -1.0251217 -1.2901591 -1.9065918 -0.39004388
-4.351501 -0.43266654 -0.89302534 -2.1830807 0.27371216 4.045062 6.4477196 -7.986041
3.7156057 1.0071383 -0.77934515 -3.023591 -4.947091 -1.3152199 -69.7234 -13.0621395
-14.221358 -21.061739 -16.2191 2.5100641 53.13774 -66.44922 16.38744 16.833223
19.330536 6.416532 19.626602 29.462744 -158.23914 -128.08401 -103.25203 -86.98533
-85.22644 -71.39046 -69.06679 85.07257 41.37063 54.284344 92.52216 123.61704
165.84798 218.14224 -22.13991 -17.15375 -14.637067 -12.815262 -13.456725 -11.598056
-9.286323 11.41602 5.3427544 6.4324636 13.575437 18.09969 25.360518 34.561165
-3.5529752 0.6679285 -2.2492921 -8.5031805 -8.200063 0.49764726 12.228407 -15.244553
3.282978 6.987357 5.672716 -1.6290135 -2.0220163 4.1015472 2.09297 2.462454
4.4079614 2.5292816 0.80542433 0.5272624 -1.9682504 2.495949 -2.7892013 -3.2374015
-1.5532532 -1.9365388 -2.0479221 0.1877898
00000000: 3b31 e7c1 0f5a b2c1 644a cbc1 01a9 b5c1
00000010: bbde 1cc2 b7c7 88c1 8e6d 8bc1 ddba ae41
00000020: 2439 dd3e 0289 7841 374e 0342 3c5c 3342
00000030: 512b 2842 089f 4442 c9b1 5741 4f90 8f41
00000040: 1ba8 3c41 06d0 833f 215e 33c1 8c1d 18c1
00000050: b194 9e3f ad80 c4bf b5e5 f740 38f9 a73f
00000060: b240 a3c0 1411 71c1 d865 5ec1 e103 8fc0
00000070: 82c2 4c41 64e7 6241 63b2 4b41 505c 1641
00000080: 4006 9740 09ea 2a3f d5eb 0541 acb0 24c1
00000090: c178 82bf 3ba8 78c0 a66d e8c0 cfff 6ac1
000000a0: b49f 86c1 d415 34c1 6b2e 7e41 8e04 7e41
000000b0: 57e2 5541 4fcc e640 698e 1140 4147 39c0
000000c0: b22e 07c1 733b 2a41 c615 8240 88e1 ddbf
000000d0: a040 ccc0 d475 61c1 7d17 9fc1 44e8 b9c1
000000e0: 4a69 d841 2444 b141 5b4a 8a41 57fa 1541
000000f0: 9014 cc3f 7871 14c0 5754 75c1 b2ce 9941
00000100: df7f 9040 d5f5 3ec0 b1d7 23c1 6491 92c1
00000110: 1268 d7c1 7367 06c2 e019 cd41 e15b bc41
00000120: 5333 8d41 fb1c d040 cea6 aebe 714a d9c0
00000130: 034a 4bc1 31b0 7e41 c52b e340 61a0 0ec0
00000140: cefc e2c0 ab2a 7cc1 0ade ccc1 6a5b 05c2
00000150: 0cbf 0a41 822a d540 3794 c540 f45b 9340
00000160: 79b9 7640 9bb2 6a40 282b c53f 785f e4bf
00000170: f837 c1bf 34d0 58c0 e2e9 b2c0 19db 14c1
00000180: 0115 14c1 92be eec0 4270 6b3f 4ed4 643f
00000190: ef0a 733f 10e8 0f3f 40e2 4c3e b177 aa3f
000001a0: 54bf 903f 6f00 b3bf 4c99 0abf e6b2 39bf
000001b0: 3037 83bf ef23 a5bf 330b f4bf d5b3 c7be
000001c0: 7f3f 8bc0 7886 ddbe 4f9d 64bf 98b7 0bc0
000001d0: 0024 8c3e 2671 8140 b853 ce40 a68d ffc0
000001e0: 7ccc 6d40 e8e9 803f 2a83 47bf 8482 41c0
000001f0: 924e 9ec0 2059 a8bf 6172 8bc2 86fe 50c1
00000200: af8a 63c1 717e a8c1 b8c0 81c1 e4a4 2040
00000210: 0c8d 5442 00e6 84c2 7a19 8341 71aa 8641
00000220: f0a4 9a41 3b54 cd40 4803 9d41 b3b3 eb41
00000230: 383d 1ec3 8215 00c3 0a81 cec2 7df8 adc2
00000240: f073 aac2 eac7 8ec2 3222 8ac2 2825 aa42
00000250: 867b 2542 2b23 5942 590b b942 ed3b f742
00000260: 15d9 2543 6a24 5a43 891e b1c1 e13a 89c1
00000270: 6d31 6ac1 500b 4dc1 bf4e 57c1 a391 39c1
00000280: c794 14c1 05a8 3641 d8f7 aa40 bed6 cd40
00000290: fd34 5941 2acc 9041 57e2 ca41 a23e 0a42
000002a0: f263 63c0 5dfd 2a3f 67f4 0fc0 070d 08c1
000002b0: 7533 03c1 9fcb fe3e 8ea7 4341 b0e9 73c1
000002c0: 501c 5240 6e98 df40 e486 b540 8483 d0bf
000002d0: b768 01c0 e03f 8340 38f3 0540 d998 1d40
000002e0: 050e 8d40 c0df 2140 4a30 4e3f abfa 063f
000002f0: a1ef fbbf a1bd 1f40 4682 32c0 9631 4fc0
00000300: 00d1 c6bf 81e0 f7bf 2811 03c0 f84b 403e
